test_model_params.pt (torch_old, 644004 bytes, 7 tensors)

embed_layer.weight f4 [2463, 64]
000000 03 b6 41 3e 96 ca 43 be ba d4 ab 3e eb fe 26 3f
       0.18917088 -0.19120249 0.33560735 0.65232724
000010 98 65 b6 bd 3f 5f f8 3e 23 d5 d9 bf fb 77 86 3e
       -0.08906096 0.48510167 -1.7018169 0.26263413
000020 86 54 da bf 9a d8 5e bf f2 e8 95 3e 19 83 8c bc
       -1.7057045 -0.8704926 0.29279286 -0.017152356
000030 71 3e 1e bf 74 2a d0 bf 19 da 07 bf 68 84 8a be
       -0.6181403 -1.6262956 -0.53067166 -0.27054143
000040 04 75 3a 3f 86 7d 44 3f 31 64 c5 3e 2e b6 90 3f
       0.728348 0.76754034 0.38553002 1.1305597
000050 15 70 27 3f 3b 5a 1a 3f c7 8f 32 3f 3c fc 9e 3e
       0.654054 0.6029393 0.69750637 0.31051815
000060 6f bc 3a 40 69 25 2b 3f 71 41 a6 3f 2c 29 a2 be
       2.917751 0.6685396 1.2988721 -0.31672037
000070 18 e3 1a 40 cf 0f e8 3f 40 29 9b be 2d ad 98 bc
       2.4201107 1.8129824 -0.3030491 -0.018637264
000080 f0 2e 5c 3f f4 cb 5f bf 1a 5c f4 3f 8f 35 42 3f
       0.8600912 -0.8742058 1.9090607 0.75862974
000090 74 67 3a be 13 ae 8c 3f 35 f3 36 bf f6 f8 04 be
       -0.18203527 1.0990623 -0.71464854 -0.12985596
0000a0 86 03 9d bf ee d6 26 bf 91 f4 1d 3d bb 1e 00 3f
       -1.22667 -0.65171707 0.038563315 0.5004689
0000b0 3e 50 9b 3f a7 3b df be aa e4 b0 bf 54 bc 4b bf
       1.2133863 -0.436002 -1.3819783 -0.7958424
0000c0 18 c6 8d be e6 77 1c 3f 9b e7 8a 3e d4 4d 62 bf
       -0.27690196 0.6112045 0.27129826 -0.88400006
0000d0 4e df bd 3d e9 eb 2c be 68 f9 99 3f 3b e6 25 3f
       0.092711076 -0.16886868 1.2029238 0.6480443
0000e0 a1 ee e9 bd dc 13 1c 40 c3 d3 63 3f 6d 8e 5c 3f
       -0.11422468 2.4387121 0.88995 0.86154824
0000f0 d6 e3 d2 bd fa 52 f1 3e 31 39 55 3e 57 54 d6 be
       -0.102973625 0.4713362 0.20822598 -0.4186122
000100 d6 24 d2 3d 00 e3 fe 3f 6d ac 12 3d 3a 4c 97 be
       0.10260932 1.9913025 0.03580897 -0.29550344
000110 e0 c2 1e bf 6f 29 55 bd 29 50 81 bf 1f c9 a1 bf
       -0.62016106 -0.052041467 -1.0102588 -1.2639502
000120 0e f1 7c bf d6 f7 3f bf 0a d7 2e 3f 84 67 90 bf
       -0.9880532 -0.7498754 0.68296874 -1.128159
000130 bf a5 40 bf 2d dd d0 be 5c 1a 8f 3e 48 26 81 bf
       -0.7525291 -0.40793744 0.27949798 -1.0089808
000140 d6 2a e3 bf 1d 7d 24 be 57 53 7f bf 60 4a e3 3f
       -1.7747447 -0.16063352 -0.9973654 1.7757072
000150 d5 b1 e8 3e 80 8c 13 3f 5b ca f8 be 04 b3 5d 3f
       0.45448175 0.5763626 -0.48591885 0.8660128
000160 46 fe b3 3f f9 1f cc be 99 ab 64 3e 78 e2 c9 bf
       1.4061973 -0.39868143 0.22331084 -1.5772238
000170 37 ac 35 bf 92 d9 9b be 3e b4 8c 3f d7 28 be bf
       -0.70965904 -0.3043943 1.0992506 -1.4856213
000180 d2 fd 82 bf e1 92 f8 3e db 24 e9 bf 25 06 70 3f
       -1.023371 0.4854956 -1.8214372 0.93759376
000190 87 f3 7d 3f 92 a4 01 c0 6c b2 32 bf 61 75 95 3f
       0.9919972 -2.0256696 -0.698035 1.1676446
0001a0 b7 71 84 3e f2 f7 66 3c 53 6f 99 3f 93 78 24 40
       0.25868008 0.014097201 1.1987098 2.5698593
0001b0 9b 89 87 3f 86 d4 6b be db d6 7f bf ba 5c 16 3f
       1.0588869 -0.2303029 -0.9993722 0.5873524
0001c0 11 5c 8d 3e e1 42 c4 3e 44 1d 28 3e 88 6c 82 3f
       0.27609304 0.38332275 0.16417414 1.0189371
0001d0 2d 3c 8b be 29 c2 ab be 0c a3 a6 3f 54 fc 92 bf
       -0.27194348 -0.3354657 1.3018508 -1.1483254
0001e0 6e b9 d7 bf ee 96 a6 3f 2c 9b 75 3f 96 2b 42 bf
       -1.6853464 1.301481 0.959399 -0.75847757
0001f0 f9 4d 1f be 24 23 a6 3e 01 19 8e be ce b4 bf bf
       -0.15557088 0.32448685 -0.2775345 -1.4977052
000200 2d 70 0d 40 bd 8c 0f bf 7d 78 91 bf 58 b7 a6 bf
       2.2099717 -0.56074125 -1.1364895 -1.3024702
000210 1d af 41 bf 7e 51 74 bf 39 41 35 3f 16 4e ea bf
       -0.75657827 -0.9543685 0.70802647 -1.830508
000220 e2 96 4e bf 3a 61 fd bf b1 b8 ad be 02 84 01 c0
       -0.8069898 -1.9795296 -0.3392997 -2.023682
000230 fd 42 b7 3e 51 0e 4f 3f a7 08 65 bf 3c e3 ad 3f
       0.35793296 0.8088122 -0.8946633 1.3584971
000240 ca 30 e2 3f 4a ca f6 3f fd c1 e1 3f 52 11 95 3e
       1.7671139 1.9280484 1.7637326 0.29114777
000250 76 ce fc be 8e 8f 03 3e 11 06 a7 be 89 f4 e4 3f
       -0.49376267 0.1284773 -0.32621816 1.7887126
000260 6a 7b 9d bf a5 35 1f 3f 9d 9b 42 3f 2c f2 57 3f
       -1.2303288 0.6219123 0.760187 0.843539
000270 a7 a5 c3 bf 71 9d 76 bf b4 d7 0a bf 32 43 c3 be
       -1.5284928 -0.96333987 -0.54235387 -0.38137203
000280 74 b8 86 3f a2 72 60 be b8 ad 1e 3f 4c a2 e8 be
       1.0525041 -0.21918729 0.61983824 -0.45436323
000290 3f 74 2a 3f 12 47 82 bf d5 51 b8 3f 1e ba 74 bf
       0.6658363 -1.0177939 1.4399973 -0.9559649
0002a0 f5 35 ac 3e 25 95 d1 bf 86 bd 7b be de 08 c1 3f
       0.33634916 -1.637364 -0.24584016 1.5080831
0002b0 58 6c 52 3f ae 0f a0 bf 9d 18 a5 3f dd d8 f6 be
       0.8219657 -1.2504785 1.2898136 -0.4821233
0002c0 bf f2 d2 be 45 cf 53 bd 13 d1 85 bf ea e5 f5 be
       -0.41200826 -0.05171134 -1.0454429 -0.48026973
0002d0 4c 0b c7 3f 9c 04 7d bf 28 71 3a 3f 7a dd ca 3f
       1.5550323 -0.9883516 0.7282891 1.5848839
0002e0 12 f1 5b 3f 7b 40 4c 3f 2c 25 ba be 58 a7 95 3f
       0.8591472 0.7978589 -0.36356485 1.1691694
0002f0 9e 1c 00 3f a7 db f0 bd 65 f8 a7 3f 01 96 b9 3e
       0.50043666 -0.11760645 1.3122679 0.36247256
000300 7e a9 14 bf f9 e2 47 bf ad 4f 03 bc f3 48 18 bf
       -0.58071125 -0.7808071 -0.008014602 -0.5948631
000310 68 6b 7c bf 00 14 32 bf e1 07 ab 3f 16 9e 5e be
       -0.9860139 -0.6956177 1.336178 -0.21739992
000320 01 9d a1 be 75 f1 fb 3d ea 57 e2 bf fc 3b ce be
       -0.31565097 0.12301914 -1.7683079 -0.4028014
000330 cb 53 d0 be eb 9c b3 bf e7 0d 41 3e a2 2e 0d 3e
       -0.4068893 -1.4032263 0.1885296 0.1378732
000340 4c 8c b3 3f 12 95 b5 3f db 39 02 3e b0 37 1e bf
       1.402719 1.4186118 0.12717383 -0.6180372
000350 29 d4 92 be be 83 55 bf 0a 45 94 3f 55 c6 4e 3f
       -0.2867749 -0.8340415 1.1583569 0.8077138
000360 31 6b 27 3f b3 10 f8 bf 7b c5 b1 3f e8 6a fb be
       0.65397936 -1.9380096 1.3888391 -0.49105
000370 51 60 36 3f 2b ea c0 bf 34 53 fc 3e 7f 72 91 3e
       0.7124072 -1.5071462 0.4928223 0.28407666
000380 91 55 7e 3f fc 88 54 3f 51 38 98 be 00 2f 9c bf
       0.99349314 0.8302152 -0.29730466 -1.2201843
000390 43 c1 37 3f f8 44 f7 3f 52 8b 7b bf d7 80 12 c0
       0.7177927 1.9317923 -0.9825946 -2.2891138
0003a0 fb 55 48 bf 2c 06 3d bf 4a 05 5d 3f ba 4f 22 bf
       -0.78256196 -0.7383754 0.86336195 -0.63402903
0003b0 f5 7f bb be 39 bf 15 bf 7b 88 97 3e 40 1b e4 be
       -0.3662106 -0.5849491 0.29596314 -0.4455204
0003c0 ff e0 6d be 8a 7a 16 3f 1d fb 8d 3f e3 7f 2e bf
       -0.2323036 0.5878073 1.1092259 -0.6816389
0003d0 0a 18 ea 3e a7 d1 dc 3f 06 90 a5 3f 80 7c b2 3f
       0.45721465 1.7251481 1.2934577 1.3944244
0003e0 3a 4d c1 bf 97 b6 c6 3f c3 50 ac bf d9 7e 2a bf
       -1.5101693 1.5524472 -1.3462147 -0.66599804
0003f0 64 48 8c bf 27 6c 4b bf b8 b4 82 3d 17 79 b6 3e
       -1.0959592 -0.794619 0.063821256 0.3563926

rnn.weight_ih_l0 f4 [40, 64]
000000 6f 65 07 be 3a 16 1a 3e b8 ca b0 3e b3 06 14 3d
       -0.13222288 0.15047541 0.34529662 0.0361392
000010 4f a8 ec be 7e 8b 44 be d9 0b b1 be 89 be c3 3d
       -0.4622216 -0.19193837 -0.34579352 0.09557826
000020 b2 7f 8c be da 48 ca 3d 27 05 3e 3e 48 a6 bc be
       -0.27441174 0.098771766 0.18556653 -0.36845613
000030 ca 5b f1 3b 42 ae a0 3b e3 2a a6 bd 86 b1 24 3e
       0.0073656784 0.0049035857 -0.08113649 0.16083345
000040 be 83 b2 be 56 c3 66 be 0b 62 0e 3f da 20 60 3a
       -0.34866136 -0.22535452 0.5561835 0.0008549817
000050 86 97 d5 3e d6 02 11 bd 72 01 15 3d 50 3b d1 bc
       0.41717166 -0.035403095 0.03637833 -0.025540978
000060 a7 60 ff bd b3 53 8d be ad f1 dd 3e 0d 3e 54 3e
       -0.12469607 -0.2760292 0.43348446 0.20726795
000070 06 6b ee 3e 02 fd 77 be e8 65 4c be 46 aa 1b 3e
       0.46566027 -0.24217609 -0.19960749 0.15201673
000080 fb 77 8d be 8f 3c 6b be 9b db a6 3e 76 03 2b 3c
       -0.276306 -0.2297232 0.3258942 0.010437837
000090 8e 9a 6c bd 35 ee 59 3d 7e f8 c2 be 30 1c a1 be
       -0.057764582 0.053205688 -0.3808021 -0.31466818
0000a0 d3 76 b4 3d f7 58 9b be e9 6e a9 3d c1 74 2f 3e
       0.088117264 -0.30341312 0.082731076 0.17134382
0000b0 d5 6f 2a be 07 0e 18 3e 57 e4 e4 be 00 60 7b 3e
       -0.16644223 0.14849101 -0.4470546 0.2454834
0000c0 68 a0 12 bf b3 9e 4b be 25 af c2 3d 6b d1 58 be
       -0.5727601 -0.19884758 0.095060624 -0.21173637
0000d0 1b 89 26 3e 65 2b 8c bd 45 77 e4 3d 23 8b b8 3e
       0.16263239 -0.06844214 0.11155561 0.36043653
0000e0 65 d8 66 be 85 25 2e be c3 a0 4d bd 0b 82 a5 bd
       -0.22543485 -0.170065 -0.050202142 -0.08081444
0000f0 06 d1 54 be 08 34 09 3d 8f 4d 44 3e 73 ed 63 be
       -0.20782861 0.033496886 0.19170211 -0.22258548
000100 b5 00 31 be ec 90 ce 3d 3d c4 55 3c 49 55 5a be
       -0.17285426 0.100862354 0.013047275 -0.21321596
000110 4d 13 8f 3d d3 d3 a6 3e 51 51 5d 3d 9e 8d 3f 3e
       0.06986103 0.32583484 0.054032627 0.18706366
000120 34 c2 03 be c5 b9 1a be a3 ea 94 bd 4c 5b 90 be
       -0.12867051 -0.15109928 -0.07271316 -0.28194654
000130 23 9c 7a 3c bc a4 9e 3d df f7 20 3e b5 1e 45 3e
       0.015296015 0.07746264 0.15719555 0.19249995
000140 1e e6 b2 be e7 e2 80 be 07 ca a9 3c 3d d7 8f be
       -0.3494119 -0.25173113 0.020726217 -0.280939
000150 23 21 a4 3d 83 e9 9d 3e cb 23 9c be 4d 2a 6c 3b
       0.08014133 0.30842218 -0.30496058 0.0036035955
000160 cd 31 c2 3c 8e f9 53 3e 44 ff a7 3e e0 03 a0 be
       0.023705387 0.20700666 0.3281194 -0.31252956
000170 f5 1e d4 3d 62 57 7b 3e 17 f1 a7 be 6f c0 b0 be
       0.10357467 0.24545053 -0.32801124 -0.34521815
000180 03 a1 e8 3d ab 22 72 3b 3b ee ef 3d 27 e1 cf bd
       0.113588355 0.0036946933 0.11715361 -0.10150366
000190 ae da 94 be a7 fe 51 3e aa cb 99 3e a0 03 2f be
       -0.2907309 0.20507298 0.30038196 -0.17091227
0001a0 aa bb 51 3e f1 4f 7e 3c 4b 97 38 be 71 6a 5d 3e
       0.20481744 0.015521989 -0.18026464 0.21622635
0001b0 2e 81 e0 bd 2a 30 cb be ff 7a 9d 3d 83 6a 56 3e
       -0.10962139 -0.39685184 0.07689475 0.20939068
0001c0 1b af 7f bd a8 fe ff bd 82 cb 8d 3e 86 3b d9 be
       -0.062422853 -0.12499744 0.27694327 -0.42428225
0001d0 3f ec 87 be d9 e1 08 ba d9 0a 10 3e f6 51 c1 3e
       -0.2654743 -0.0005221642 0.14066638 0.37757844
0001e0 17 72 93 3d f4 7c 25 be ae c3 f7 3e b1 fa ee 3e
       0.07199495 -0.16160947 0.4839148 0.46675637
0001f0 2f 4d db 3d 32 ee 3e bc d8 a7 9f 3d 93 a9 4f 3e
       0.10708081 -0.01165347 0.077956855 0.20279531
000200 05 3a 29 3f ba e6 85 be 2a 35 3d be b8 62 f8 bd
       0.66104156 -0.26152593 -0.18477312 -0.12128204
000210 07 0a 91 be 46 29 a5 3e 7e c4 78 3e f4 da d0 3d
       -0.28327963 0.32258052 0.24293706 0.10198012
000220 a1 02 d7 be 19 24 6a 3d 8d 28 25 3d 1f b1 91 be
       -0.41994193 0.05716333 0.040321875 -0.28455445
000230 26 b0 96 3e dc 5b 5e be 6e ff 6f be 43 d3 23 3d
       0.29431266 -0.21714729 -0.23437282 0.039996397
000240 18 53 dd be 38 b3 a6 be 8f 70 3c 3e e9 d7 84 3c
       -0.43227458 -0.32558608 0.18402313 0.016216235
000250 31 d1 35 be 41 02 e3 3d 5e 15 5c bb b7 19 75 3e
       -0.17755581 0.11084414 -0.0033582072 0.2393559
000260 ac e3 1d bd aa b9 78 be c8 b8 be 3d 1b 0a 80 bc
       -0.038547203 -0.24289575 0.09312588 -0.015629819
000270 b1 75 5d be e9 4f 54 be 3c 39 0e bd 13 71 88 3d
       -0.21626927 -0.20733608 -0.03472255 0.06662192
000280 c7 5b d4 be 53 cf 1c 3e 01 e4 60 3e 80 2c 6b 3d
       -0.4147627 0.15313463 0.21961977 0.057415485
000290 fa 3d 40 3d 0f b5 a8 be 99 d1 50 3e 39 b2 83 be
       0.046934105 -0.32950637 0.20392455 -0.2572191
0002a0 0d e3 ef be 0e 83 07 bd 7b 04 4a 3d aa b6 cf be
       -0.46852913 -0.033083968 0.04932068 -0.4056905
0002b0 00 65 2a 3d 71 12 95 3e dd 3c 47 bd 78 ec e3 3e
       0.041600227 0.29115632 -0.048642028 0.4451635
0002c0 8b 4a 99 bd 82 ae 4a 3e d0 6c 8f be 21 ad 00 be
       -0.07484921 0.19793132 -0.28012705 -0.12566043
0002d0 f4 fa 62 3e 24 d5 22 bf 2a 82 48 be 0f 29 64 3b
       0.22166044 -0.63606477 -0.19580904 0.0034814512
0002e0 d2 96 84 be 90 df 05 3e 89 74 e7 3b 67 25 c3 bd
       -0.25896317 0.13073564 0.0070634526 -0.09528618
0002f0 24 cd c8 be 07 8e 20 bd c1 d6 ad 3e 29 7a 62 bd
       -0.3921901 -0.039197948 0.33952907 -0.055292282
000300 25 6e 41 3e c5 72 8d 3e 68 29 1a 3e f7 7f 6a 3e
       0.18889673 0.27626625 0.15054858 0.22900377
000310 c2 bd 95 bc 5f 40 88 be 27 fc 34 be b6 9a a7 be
       -0.01827896 -0.2661161 -0.17674313 -0.32735223
000320 97 71 c1 be 15 41 99 3e 1d 14 80 bd 55 e5 a3 3e
       -0.37781975 0.29932466 -0.06253836 0.32010904
000330 8a 7c 98 3d 90 43 a9 3d ab 17 9b bb a8 37 d4 bd
       0.07445629 0.0826484 -0.004733046 -0.10362178
000340 58 56 0d bc 5a 0f 81 3c 6d 2b ac bd 40 1f 22 be
       -0.008626543 0.01575439 -0.0840672 -0.15832233
000350 62 2d a7 3d f3 7d 8a be ed d1 23 bd 0e 39 f3 3e
       0.08162953 -0.27049217 -0.039995123 0.47504467
000360 06 93 e3 bd 24 3c 2d bc dd a6 1c be 8d b5 7a be
       -0.11112027 -0.010573421 -0.15298028 -0.24483319
000370 25 22 a3 3e d9 f7 12 bd e7 b2 36 bd be 9d a6 be
       0.31861988 -0.035880897 -0.04460421 -0.32542223
000380 f9 30 40 bc 1d d9 11 be 18 94 28 be 53 ae 2e bd
       -0.011730426 -0.14242978 -0.16462743 -0.042646717
000390 3f 1e de 3c c2 7b 68 3d 00 8b d6 bd 5a c3 33 be
       0.027114032 0.05675865 -0.10475731 -0.1755499
0003a0 1f 47 32 3e 7e 18 bd be b8 21 13 bf 00 da 0f 3d
       0.17409943 -0.3693275 -0.57473326 0.03512001
0003b0 90 18 95 3e 3d 6d f3 bd 32 90 df be 48 c2 8d 3e
       0.29120302 -0.1188607 -0.436647 0.27687287
0003c0 94 20 e5 bc d4 0b 33 3e 45 e4 1b 3e 54 ea 98 be
       -0.027969636 0.17484981 0.15223797 -0.29866278
0003d0 4f 48 9d be e4 84 af be 40 4c 38 3e b3 d8 6d 3e
       -0.3071923 -0.34281075 0.17997837 0.23227195
0003e0 84 a0 d9 3d c5 dc 52 3e 4d 77 4f bc b1 51 66 3e
       0.10626319 0.2059203 -0.012662721 0.224921
0003f0 09 68 e9 3d 3f 19 c3 ba d0 c2 b7 be 7f 98 e2 3e
       0.11396796 -0.0014884843 -0.35890818 0.4425697

rnn.weight_hh_l0 f4 [40, 10]
000000 0f af 02 3f 49 86 68 be ab 4f 3a bd d5 5d 52 be
       0.5104837 -0.22707476 -0.045486134 -0.20543607
000010 0e aa a0 be 2f 2c ab bd 55 2a 02 bf 2b c7 48 be
       -0.3137974 -0.08358037 -0.50845844 -0.19607227
000020 86 13 d5 3e 83 4a 17 be 6a 62 02 3f 73 66 d3 be
       0.41616458 -0.14774518 0.5093142 -0.412891
000030 a3 b5 52 3e b0 f6 02 bf 9e 13 80 be 10 2c 05 bd
       0.20577101 -0.51157665 -0.25014967 -0.032512724
000040 3c 6c 13 be 3b 13 b2 3e 21 bc 68 be e9 09 4f 3e
       -0.14396757 0.34780297 -0.22728015 0.20218624
000050 23 b9 bb 3e 93 07 f4 be 28 ca 85 3d 61 79 89 bd
       0.36664686 -0.4766203 0.06532699 -0.06712604
000060 0a 6b a0 be 05 6c 11 3e 63 e9 40 be 37 73 ce bc
       -0.31331664 0.14201362 -0.1883903 -0.025201423
000070 4e 5d ab be 4c 65 a6 bd 0f 62 2f 3f 3e e2 e1 3e
       -0.33469623 -0.081247896 0.68509 0.44117922
000080 6d 58 0f 3f 67 16 5c be 81 8b cd 3e bf 64 95 be
       0.559943 -0.21492921 0.40145496 -0.29178426
000090 00 36 c8 be c0 b4 9f be 1b 41 36 3d 0d 11 89 3e
       -0.391037 -0.3119259 0.044495683 0.2677082
0000a0 d0 bc bd 3d 82 77 09 bf 03 43 3b be d3 40 ca bd
       0.09264529 -0.5369798 -0.18287282 -0.098756455
0000b0 6f 3a ce be 55 17 c8 bd 31 ff 33 bd a4 cb 9f be
       -0.40278956 -0.09770075 -0.04394454 -0.31210053
0000c0 9b fb ac bb 43 29 35 3f d6 7b db 3e c2 36 ec be
       -0.005279017 0.70766085 0.42867917 -0.46135527
0000d0 ec fc 83 be 59 f0 76 3b 0b 52 19 3e 61 a9 da 3d
       -0.25778902 0.003767988 0.14972703 0.10676838
0000e0 cc af d0 be e9 0a 19 be 5b a6 87 3e 8b 97 9d 3e
       -0.40759122 -0.14945568 0.26494107 0.3077968
0000f0 6b 6a 80 3e 21 8d 23 be e4 82 d8 be 68 d4 69 3d
       0.2508119 -0.15971805 -0.42287362 0.057087332
000100 1a e9 1e 3c a7 3a a7 3e be 40 31 be a7 09 70 3e
       0.00969913 0.32661936 -0.17309853 0.23441182
000110 92 39 68 be 28 ee e5 bd ba 53 55 bd 96 b0 a8 be
       -0.22678211 -0.11227065 -0.0520818 -0.32947224
000120 9e 36 6a 3e 1b 59 23 be 34 89 41 bd 4e 67 17 bd
       0.22872397 -0.1595196 -0.047249988 -0.036963753
000130 11 84 f7 3e 5c ef 51 3e 47 d8 54 3e 84 dc 48 be
       0.48342946 0.20501465 0.20785628 -0.1961537
000140 42 51 45 3e 9d 26 28 bc b4 a9 5e be f5 a1 f5 3e
       0.19269279 -0.010263112 -0.21744424 0.47975126
000150 d5 2f 83 be 56 5f 1a 3e c8 b5 a5 bd 6c da 55 3e
       -0.2562243 0.1507543 -0.08091313 0.20884103
000160 58 ad c5 3e e7 59 9b bc 32 30 ff 3e a0 9f 10 3d
       0.38608813 -0.018963767 0.49841458 0.03530848
000170 4b c2 92 be 77 6f c8 be b7 b2 2d 3e 3e 2d 23 be
       -0.2866386 -0.3914754 0.16962706 -0.15935227
000180 7a 9b ad 3d 2d 01 c7 3d ff f5 c2 bd 42 5e 97 bc
       0.084769204 0.09717021 -0.09519576 -0.018477563
000190 8e ed bd 3d e5 aa 00 bf 7c 20 a5 bd f4 da f5 bd
       0.092738256 -0.50260764 -0.080628365 -0.120046526
0001a0 21 ec 27 bf e9 2b b4 3e ac 8f 57 be ce b5 c9 3d
       -0.6559468 0.3518975 -0.210509 0.098491296
0001b0 2d af 8d bc fe 3e 15 3f f7 7e c5 3e 24 09 98 bb
       -0.017295444 0.58299243 0.3857343 -0.0046397615
0001c0 fa 45 1d bc bd 41 c8 be 46 cb 1f bf 49 99 2e 3a
       -0.009599203 -0.39112654 -0.62419546 0.00066604145
0001d0 4b a5 ed 3b c4 26 d5 3e df 59 36 3e 5b ec d5 3b
       0.0072523705 0.41631138 0.1780772 0.00652842
0001e0 ef 39 a0 bc 03 74 bd be c1 53 2d 3e f7 a9 56 3d
       -0.019558875 -0.37002572 0.16926481 0.052408185
0001f0 f4 3e 06 3d 6a df 57 3d 23 87 40 3e ee 63 9d be
       0.03277488 0.0527033 0.1880155 -0.30740303
000200 07 00 4e bd c1 82 20 3e 9d 95 01 bc 2b b2 b9 3d
       -0.050292995 0.15674879 -0.007909206 0.09067186
000210 cb 25 ea be 18 a1 80 3b d5 22 27 be 75 03 66 be
       -0.4573196 0.003925454 -0.16321881 -0.22462256
000220 9f fc 3c be 23 d7 92 3d 9a c3 5e 3e 86 52 bf bd
       -0.18455742 0.0716994 0.21754304 -0.09341912
000230 87 1b ee 3e ac 86 6c be 29 06 92 3d 81 89 92 be
       0.46505377 -0.23098248 0.07130081 -0.28620532
000240 d1 33 b6 3e e7 d0 f9 bd f7 21 8e be 9b b1 a9 3d
       0.35586408 -0.12198048 -0.27760288 0.08285829
000250 cf 81 59 be 3f f3 81 3e 89 5d 44 3e 02 29 62 3e
       -0.21240924 0.25380895 0.19176306 0.22085956
000260 7a 63 99 be 4e fe af 3c 7f 95 6b be be 0e 14 be
       -0.29958707 0.021483567 -0.23006247 -0.14458749
000270 76 f4 29 3e 05 25 59 be ce 06 48 3e 73 13 ba 3e
       0.1659716 -0.21205528 0.19533846 0.36342964
000280 91 04 3a 3e 5c 3e 54 3e 67 06 8c 3e 76 27 f3 bd
       0.18165804 0.20726913 0.27348635 -0.11872761
000290 47 17 af 3d ad 81 90 be 8d dc d5 be eb 27 69 3e
       0.08549362 -0.28223935 -0.4176983 0.22769134
0002a0 0d 9d 1a 3e 67 ed 63 3d 34 a1 13 3e ad 2b 6d be
       0.15098973 0.055646326 0.14416963 -0.23161192
0002b0 6b 0c 27 3c 90 a1 34 3e ef a4 01 be d2 7a 2b bd
       0.010195832 0.17639756 -0.12660573 -0.041865177
0002c0 84 b2 11 bd ac 7e d7 3e ac 9e 4d be a1 f3 7f 3e
       -0.035570636 0.4208883 -0.2008006 0.24995281
0002d0 2f 73 91 3e 22 26 6f be 53 fc 9b 3e cf 4a 87 bd
       0.2840819 -0.2335439 0.30465946 -0.066060655
0002e0 cc 10 6e bd 66 6e 8f be b7 6a d2 3d 8b a3 a5 bd
       -0.058121487 -0.28013915 0.102742605 -0.08087834
0002f0 19 ed f9 bd 66 37 67 3e 7c 14 0b 3f f0 4a 1d bf
       -0.12203426 0.22579727 0.5432813 -0.6144247
000300 74 73 b8 3c 4e 42 a2 be ee 12 94 be 5d 79 bd 3e
       0.02251599 -0.3169121 -0.28920692 0.37006655
000310 e5 53 10 bf d7 55 1e 3f 29 70 0e 3f 3d ce 37 bd
       -0.5637801 0.6184973 0.5563989 -0.04487442
000320 1a c5 a2 3e ba 27 01 bf f4 72 4c be d6 90 8b be
       0.31791002 -0.5045124 -0.19965726 -0.2725894
000330 b0 2c c4 bd 2f bd 9e 3e 31 a5 b2 be f3 0e 95 3e
       -0.09578836 0.3100371 -0.34891656 0.29112968
000340 b6 9f 82 bb 42 fd 8c 3e 1d f9 ec bd cd 23 b9 3d
       -0.003986324 0.2753697 -0.11570952 0.090400316
000350 a2 37 06 3f 6e 9b 16 bd 41 3d 98 3e e3 c4 1c bf
       0.5242864 -0.036769323 0.29734233 -0.61237925
000360 72 11 eb 3d 90 da c6 be 1a 57 3b 3d bd f1 33 be
       0.11477937 -0.38838625 0.045737363 -0.17572685
000370 12 c3 db 3d 78 18 fd 3e c5 7d 9b 3e 58 f1 b8 3e
       0.10730566 0.4943273 0.30369392 0.3612163
000380 aa 44 d8 3e 81 c9 17 be 26 e6 19 3f 7c 4e 9c be
       0.42239887 -0.14822961 0.60116804 -0.3052863
000390 fe e4 08 be 89 ba cf be 14 ba 0e 3b 65 73 ee 3e
       -0.13368604 -0.40572003 0.0021778392 0.46572414
0003a0 fa 1f de 3e 0f bc bc 3e 40 2d ff 3e 3d e8 9f bb
       0.4338377 0.36862227 0.4983921 -0.00487998
0003b0 c1 8a 03 3f ed dd 93 be 2a e6 47 bd 1e e1 1d bf
       0.51383597 -0.28880253 -0.048803486 -0.61671627
0003c0 d6 9d db be 74 c1 f0 3d e0 7b 5b 3e 4d 96 91 3e
       -0.42893857 0.11755648 0.21433973 0.28434983
0003d0 11 73 1e 3e 65 9e 49 be 36 4c da 3e 83 1b e3 be
       0.15473582 -0.19689329 0.4263627 -0.44356927
0003e0 0e ea d4 be 2c 01 4e be f4 41 93 3d 96 37 e3 be
       -0.4158482 -0.20117635 0.07190314 -0.44378346
0003f0 32 84 cb be 9d 8f ac 3c 20 8c 0b bf 9d 4d 5d 3e
       -0.39749295 0.021064574 -0.5451069 0.21611638

rnn.bias_ih_l0 f4 [40]
000000 f1 ac 1e be 50 33 01 3f 96 7a 1e 3e 4f de 18 3d
       -0.1549566 0.5046892 0.1547645 0.037321385
000010 71 5e 80 bd a1 70 9c 3e b4 74 bb 3e 99 81 ac 3e
       -0.06268013 0.3055468 0.36612475 0.33692625
000020 2d 7c 28 3e 78 63 cc 3e 68 f2 86 3d 76 c7 e7 3e
       0.1645362 0.3991964 0.06589204 0.45269364
000030 89 33 20 3f 70 64 10 be 03 b3 19 3f 14 bd 22 3e
       0.62578636 -0.14100814 0.60038775 0.1589244
000040 f1 6d b3 3e d4 6a 19 3f db f1 04 3f ba c3 2f 3e
       0.35044816 0.5992863 0.5193154 0.17164508
000050 2f 2b cf 3e cf 46 76 be fa f1 6a bd 94 25 60 3e
       0.40462634 -0.24050449 -0.057359673 0.21889335
000060 4f 06 2c 3e 50 2e 4b 3c a4 a2 4c be b6 8e 31 be
       0.16799282 0.0124011785 -0.19983917 -0.17339596
000070 04 25 83 3d 02 ea b9 bd fa da ab 3d 3c f0 4e 3e
       0.064035445 -0.090778366 0.08391376 0.2020883
000080 8a 9b c0 3e 3a 67 02 3f d2 db 4d 3f 4d 42 24 3f
       0.37618667 0.5093876 0.80413544 0.64163667
000090 f1 f1 d3 3e a6 bd 19 3f a4 a1 ad 3e 4d 5b 20 3f
       0.41395524 0.60055006 0.33912385 0.62639314

rnn.bias_hh_l0 f4 [40]
000000 09 08 45 bd 68 f9 23 3e a4 b9 40 3d 1b f5 83 3e
       -0.048103366 0.1601311 0.04705204 0.25772938
000010 2c 65 e7 3d e7 f5 18 bd f4 11 b9 3e 10 47 b4 3e
       0.11298594 -0.037343886 0.3614651 0.35210466
000020 3e bc ad 3d 93 77 f7 3e 11 3a 01 3e 15 92 9d 3e
       0.0848317 0.48333415 0.12619807 0.30775514
000030 a0 90 8b 3e 9b ae a4 3c 7e 28 32 3e 86 cb 90 3e
       0.27258778 0.02010279 0.17398259 0.28280276
000040 b0 3f dd 3e bc a4 48 3e f8 19 d7 3d 2e ea 96 3e
       0.43212652 0.19594091 0.10503 0.2947554
000050 9d 57 43 3e 8b 02 1a be 9d a9 96 3e 02 c9 85 3e
       0.1907639 -0.15040033 0.2942628 0.2612992
000060 e0 42 40 bd eb 85 69 be 53 6b 58 3d 40 54 aa bd
       -0.046938777 -0.22804992 0.052836727 -0.08316851
000070 48 01 a8 3d ec 30 9d 3e 2a 32 10 3e e3 20 b8 3e
       0.082033694 0.30701387 0.14081636 0.3596259
000080 5b 5a 20 3f f3 95 d8 3e f5 1b 66 3f 94 ae 2e 3f
       0.6263787 0.42301902 0.8988641 0.68235135
000090 29 da 7d 3e 0c bb 67 3e ab 2e dd 3e d3 fb ec 3e
       0.24790253 0.22629946 0.43199667 0.46285877

linear.weight f4 [2, 10]
000000 b1 b9 31 bf d2 01 20 3f 0d dd 96 3f 19 1e 5e 3f
       -0.6942397 0.6250278 1.1786209 0.86764675
000010 26 24 95 3f c5 e7 93 bf bf 38 95 3f 28 27 79 bf
       1.1651657 -1.1555105 1.1657943 -0.9732537
000020 49 00 7a bf 79 54 3b bf ad c1 3b 3f f4 14 84 bf
       -0.97656685 -0.7317577 0.733424 -1.0318894
000030 9c 74 6f bf b5 c1 88 bf db 6a 6b bf 48 32 97 3f
       -0.93537307 -1.0684115 -0.91959924 1.181222
000040 08 65 81 bf b7 e8 7e 3f d9 9b 15 3f 69 08 2c 3f
       -1.0108957 0.99573845 0.5844093 0.6720033

linear.bias f4 [2]
000000 65 b1 21 3f 55 99 3b bf
       0.6316131 -0.7328084
