data/decoder_bin.pt (torch_old, 664946 bytes, 7 tensors)

embed.weight f4 [46, 256]
000000 70 c4 8c bf 9c b7 c7 3e 4c c6 ab 3e 44 c0 bc be
       -1.0997448 0.3900727 0.33549726 -0.36865437
000010 9e 65 04 3e 04 1e 1b 3f 2d d3 ba 3d 45 be 5f 3f
       0.12929389 0.60592675 0.0912231 0.87399703
000020 eb 9a b8 3e d3 f6 a3 bf b8 6f 2c bf 21 cf 0f 3d
       0.36055693 -1.28097 -0.6735797 0.035109643
000030 cd 8d 49 bf fc 98 82 3c f5 c1 19 3f c6 ca 71 be
       -0.78731996 0.01594209 0.6006158 -0.23612508
000040 88 81 86 bd 1e ec a2 3f d0 6f 0b 3f 44 f8 0c bf
       -0.06567675 1.2728307 0.5446749 -0.55066323
000050 da bf 00 be 86 57 d4 3e 95 74 60 bf 86 e9 dd 3f
       -0.12573186 0.41473025 -0.8767789 1.7336891
000060 9e 12 a2 3a 31 3b e7 3e e5 78 19 bf 4c af 87 bf
       0.0012365167 0.45162347 -0.59950095 -1.0600371
000070 7e c3 1e 3f e1 ab bb bf 18 b9 ae 3f e4 ce bc 3f
       0.6201705 -1.4661828 1.3650236 1.4750638
000080 cb 99 bb 3f 3b fe bb 3f b4 84 b3 bf 45 92 24 bf
       1.4656309 1.468696 -1.4024873 -0.6428569
000090 d8 20 8b bf 06 78 c3 bd 9b 64 11 3f 53 29 0b c0
       -1.0869398 -0.09544377 0.56794137 -2.1743972
0000a0 05 a4 6e 3f 26 bf 85 3e a8 88 0c c0 66 e3 50 bf
       0.93219024 0.26122397 -2.1958408 -0.8159698
0000b0 16 7e 14 bf 36 c9 24 bf 0e 09 93 3f cd f5 bc 3f
       -0.5800489 -0.64369524 1.1487138 1.4762512
0000c0 c0 af 91 be 17 62 60 bf 66 3f 60 3f 30 d0 d0 bf
       -0.284544 -0.87649673 0.8759674 -1.6313534
0000d0 40 ba 35 bf 10 32 54 3f 71 b4 ab 3c 1f 07 bd 3f
       -0.7098732 0.8288889 0.020960065 1.4767798
0000e0 52 0b 42 be 2e 39 79 3f 13 bf 6e 3e 16 ec 0f c0
       -0.18949631 0.97352874 0.23315077 -2.2487845
0000f0 09 d4 a0 3f 9e ae 86 bf 7b c6 90 3f da 24 e8 3e
       1.2564708 -1.0522039 1.1310571 0.45340616
000100 29 c7 3e 3f 7a cb 35 c0 75 04 4f 3f 8b a1 a1 bf
       0.74522644 -2.8405442 0.80866176 -1.2627424
000110 fc 3f 34 3f 18 c8 63 3d 3e f2 fc be aa dc 91 bf
       0.7041013 0.055610746 -0.49403566 -1.1395466
000120 57 cc 9f 3e 9c f4 07 3d af 38 5b bf 90 3f 94 be
       0.31210586 0.033192262 -0.8563337 -0.28954744
000130 b9 ea a1 3f c3 6f 89 3f 12 26 6a bf ec 1a ff 3d
       1.2649757 1.0737232 -0.9146434 0.12456307
000140 d5 d4 7e 3d fa 90 9b be 49 bd 58 bf af 6c 9d bf
       0.06221469 -0.30384046 -0.84663826 -1.2298793
000150 7d 6f dc 3e c5 33 f9 bf 53 36 69 bf 1f 57 a4 3f
       0.4305381 -1.9468924 -0.9109852 1.2839087
000160 8a 53 e7 3e 48 7f 23 c0 8f f5 0c c0 ea 89 00 be
       0.45180923 -2.5546436 -2.2024877 -0.1255261
000170 e1 50 4b be 0f df d1 3f af cf 60 3f b4 88 c6 3f
       -0.19855072 1.6396197 0.878169 1.5510468
000180 61 7c 9d 3e 7f c4 86 bf e3 f3 ba be 59 d7 e0 3e
       0.30758956 -1.0528716 -0.36514196 0.43914297
000190 38 a8 62 bf 7f e2 f0 bc eb 9e 38 bf 88 71 ad bf
       -0.8853793 -0.029404877 -0.7211749 -1.3550272
0001a0 4f ad ab be 9d 77 5a 3f a5 56 23 40 dc ff 12 40
       -0.3353066 0.85338765 2.5521634 2.2968664
0001b0 2c 2b 62 bf 57 85 97 3f 4a 67 6a bf 6c c9 c2 bf
       -0.88347125 1.1837567 -0.91563857 -1.5217719
0001c0 2e f8 a2 bf 5b 70 60 bf 10 4d 30 bf e6 e9 0d be
       -1.2731988 -0.8767144 -0.6886759 -0.13858756
0001d0 67 05 16 3f e2 cc ba 3e d1 6b 2c 3f e8 1f 4d bf
       0.58601993 0.36484438 0.67352015 -0.8012681
0001e0 e5 66 ba bd 8f 7c 81 bf b5 22 a5 3f b6 14 e4 bf
       -0.09101657 -1.0116137 1.2901217 -1.781882
0001f0 9c 21 24 bf db 4b d1 3f e0 62 af 3f b3 7f 67 3f
       -0.64113784 1.6351274 1.3702049 0.9042923
000200 5d a9 87 3f d0 36 ed 3e f1 22 b6 3f 3c ef 41 3f
       1.059856 0.4633088 1.4229413 0.7575567
000210 3e 98 74 bf 65 1a ba 3d 78 14 52 bf 6a ac b8 bf
       -0.95544803 0.090870656 -0.8206248 -1.4427617
000220 4b 66 98 bf 7a 61 4d 3f ac a8 40 bf 00 3c e0 3f
       -1.1906217 0.8022686 -0.7525737 1.751831
000230 53 9f 26 40 25 30 57 bf bc 4c 70 3f 7a 66 c7 be
       2.6034744 -0.8405784 0.9386709 -0.3894537
000240 8b b1 1e 3f 9a d3 89 3f a8 a8 8d bf 5e 82 30 bc
       0.6198966 1.0767701 -1.1067095 -0.010773269
000250 02 53 5f 3f 6f 88 e9 bf 64 aa 90 3f 0b 4c 96 bf
       0.87236035 -1.8244761 1.1301999 -1.1741956
000260 14 88 18 40 4a 4e cc bf 5f 90 bb 3f 3c 1a 60 3f
       2.3833055 -1.5961392 1.4653434 0.8754003
000270 0b 81 17 bf f9 c3 66 bf 0f 0b d8 3f 11 d9 34 bf
       -0.5918128 -0.9014278 1.6878375 -0.7064372
000280 53 c5 07 3f 59 cb 22 bd b0 bf 81 bf 1a f4 82 be
       0.5303547 -0.03974471 -1.0136623 -0.2557686
000290 48 03 00 40 a8 1c 50 3f cd ff c6 bf 0a b3 b2 3d
       2.0002003 0.81293726 -1.5546814 0.08725555
0002a0 ef d8 8d bf 6a e9 ba be e0 07 2f 3f c1 06 80 be
       -1.1081828 -0.36506206 0.6837139 -0.25005153
0002b0 4e 32 ac bf f6 d9 3d bf 0f 21 ee be 55 55 be 3f
       -1.3452852 -0.74160707 -0.46509597 1.4869791
0002c0 db 0d a0 3e 8c 9c b1 3f 46 2b 2f be d2 83 61 bf
       0.3126057 1.3875899 -0.17106351 -0.88091767
0002d0 86 35 aa 3e fe 3a 01 bf 55 5f c9 bd 72 55 52 bf
       0.3324396 -0.5048064 -0.09832636 -0.8216163
0002e0 31 f2 63 bf 65 19 d3 be 4a 31 d7 3e 65 2f be be
       -0.8904143 -0.41230312 0.42029792 -0.37145534
0002f0 36 5a e7 3f 27 b4 f9 3e 5a 92 cf bf 45 aa 1b c0
       1.8074405 0.48770258 -1.6216538 -2.4322674
000300 2a 00 f1 be a8 ad 2a 3f a3 3b c7 be 0d c7 94 be
       -0.47070438 0.6667123 -0.38912687 -0.29058114
000310 e3 d7 0c bf 6e 49 b6 3f 17 28 c5 be fe 07 0d c0
       -0.55016917 1.4241159 -0.3850715 -2.2036128
000320 d2 43 07 bf 43 39 89 3f 38 5c 29 3f e0 3b 4d 3f
       -0.5283786 1.07206 0.6615634 0.80169487
000330 71 1a 81 bf f0 da b9 bd 96 0e bd bf 19 16 aa bb
       -1.0086194 -0.09074962 -1.4770076 -0.0051906225
000340 70 39 af bf 05 3a fd be 64 5b 39 bf dd ce ac bf
       -1.3689404 -0.49458328 -0.72405076 -1.350063
000350 65 04 3a 3f 60 2a 10 40 00 48 77 3e d7 f1 a9 be
       0.72662956 2.2525864 0.2414856 -0.33192322
000360 69 18 c2 bf 8a 41 80 bf 45 49 92 bf 7a f1 ad 3c
       -1.5163699 -1.0020001 -1.142861 0.021233309
000370 c9 53 6c 3f 3f 6c 5a be 2c 3f e2 be df 26 06 c0
       0.92315346 -0.21330355 -0.4418882 -2.0961225
000380 2a c1 48 3f 28 03 69 3f 0a 9a 77 bf 4d 23 8c bc
       0.78419745 0.9102044 -0.9671942 -0.017106676
000390 d4 0f 99 3f 5e da 39 c0 b1 13 5e bf 5d 89 3f bf
       1.1957955 -2.903953 -0.86748797 -0.74818975
0003a0 98 2c 0a 3f 04 0e a2 be 2a 38 1e bf ee 56 8e 3f
       0.53974295 -0.31651318 -0.6180445 1.1120279
0003b0 50 2a ef be a6 65 98 bf 5f 39 f9 3d 88 d3 bb 3f
       -0.4671197 -1.1906021 0.12169146 1.4673929
0003c0 e1 69 cc 3e 65 63 08 bf 05 5f 23 3f a6 df 96 bd
       0.3992453 -0.53276664 0.63816863 -0.07366876
0003d0 31 35 e4 be 83 27 4a bf f4 70 50 3f 44 ee 32 3f
       -0.44571832 -0.7896654 0.8142235 0.69894814
0003e0 08 75 9b 3e 68 23 f7 be be 67 52 be 75 d9 fc 3f
       0.30362725 -0.482692 -0.20547387 1.9753863
0003f0 cb 8e 97 3f 47 8f 51 3e 93 ac 1f 3d 3c 61 20 c0
       1.1840452 0.20464812 0.03898294 -2.5059347

gru.weight_ih_l0 f4 [384, 256]
000000 43 21 de 3c 70 ac d3 3c 34 cc 6b 3d 75 48 e2 bd
       0.02711547 0.02583906 0.05756779 -0.11048976
000010 aa 8e ec 3d cd 34 3d 3c 54 24 85 bd c0 f8 6d 3d
       0.115506485 0.011548233 -0.0650107 0.058098555
000020 b1 7b 1f 3d dc 4f af 3c 0c 30 3d bb fb c6 15 3d
       0.03893632 0.021400385 -0.002886775 0.036566716
000030 aa df aa 3d 56 02 ee 3c 06 2c 1a 3d 33 f0 17 3d
       0.08343442 0.029053848 0.03763964 0.037094306
000040 10 68 12 bd 7b a5 98 bd 5a d7 c4 bc ef 5c 03 3d
       -0.035743773 -0.07453438 -0.024028469 0.03207105
000050 0b 57 b8 bd c5 43 9e 3c 35 73 89 3d e0 ad f0 bd
       -0.09000977 0.019319424 0.06711427 -0.11751914
000060 fd d9 d0 3d f5 34 8e 3b 60 68 c9 3d 39 37 97 3b
       0.10197828 0.004339809 0.09834361 0.0046147374
000070 7b 4d 84 bd 34 b5 0c 3e 99 39 3c 3e c4 76 51 3d
       -0.06460091 0.13740999 0.18381347 0.051138654
000080 56 a3 14 bd cd 07 2a 3d 52 23 7b 3d cb b1 40 bd
       -0.03628858 0.041511346 0.06131298 -0.047044557
000090 ba 63 da bd 9e 17 86 bc 3f dd ea 3b 45 ce a6 3d
       -0.106635526 -0.016368683 0.007167488 0.081448115
0000a0 6c f0 43 3c 01 b0 6e be 86 20 a1 bd 24 97 12 39
       0.0119591765 -0.23309328 -0.078675315 0.0001397995
0000b0 73 17 92 3d a9 bf 40 3d 28 b8 8f 3d ad 3f 02 be
       0.07133379 0.04705778 0.07017547 -0.12719603
0000c0 2d 2b 3e be 6a 77 67 bd 75 5a 5f 3c 21 63 e9 3c
       -0.18571158 -0.056510366 0.0136324065 0.028489651
0000d0 b8 d0 ca bd 79 15 98 bd ad 62 74 3d 41 1a 0c bd
       -0.09903091 -0.074259706 0.059664417 -0.034204725
0000e0 8a ad 54 3d 77 bb 51 3c 14 65 9b 3d 3d 1a 2e 3c
       0.051923312 0.012801043 0.075876385 0.010626373
0000f0 6c 21 5d 3d e0 13 20 bd a7 bc c8 3d ad 13 44 3d
       0.05398695 -0.039081454 0.098016076 0.047870327
000100 fe b5 ca 3c cf 5e ea 3a c8 76 3b 3d 9d e7 d7 3d
       0.024744984 0.0017881038 0.045767576 0.105422236
000110 da b2 be 3c e2 e0 b6 3c f8 e3 33 bd 96 e4 f4 3d
       0.023278642 0.02232403 -0.04391858 0.11957662
000120 d6 a3 06 3d df a7 a9 bd 95 a6 bd 3c ac ee 1e 3d
       0.03287109 -0.08283972 0.023150722 0.038801834
000130 15 f7 3a bd ee c3 05 be 13 3e f6 bd 45 8c 8a bd
       -0.045645792 -0.13063022 -0.120235585 -0.067650355
000140 2d 94 30 bd 2f ee 08 bd f4 05 e5 3d 14 86 05 bd
       -0.04311006 -0.033430275 0.11182776 -0.03259857
000150 55 55 ac bd 38 f4 69 3d 05 e5 9a 3d 0f 34 1e 3d
       -0.08414713 0.05711767 0.07563213 0.038623866
000160 d2 55 28 bd db bd 47 3d 13 c3 80 bd 8d b8 8d bd
       -0.04109747 0.048765045 -0.062872075 -0.06919966
000170 50 47 e5 bc 97 73 2e 3e 63 bc 4f bb 24 c7 05 bc
       -0.027988106 0.17036282 -0.003169798 -0.008165155
000180 14 7f e7 bd 81 c5 61 3d 55 c8 09 bd 3a 57 8a 3d
       -0.11303535 0.055119995 -0.033638317 0.067549184
000190 d0 f8 11 bc 4d 36 d1 bd da 45 05 bd 4d 8e 05 bd
       -0.008909419 -0.10215435 -0.03253732 -0.03260641
0001a0 bb ab dd bd 39 85 16 3d ee ef 6b bc 92 9d 34 bc
       -0.108237706 0.036748145 -0.014400465 -0.011023896
0001b0 f7 38 6a bd ba e7 c3 bd 3b ad ea 3c 7e 17 47 3d
       -0.057183232 -0.09565683 0.028647056 0.04860639
0001c0 c3 74 f9 bd cd f9 90 bc 32 cf 12 3d c2 e3 18 3d
       -0.12180474 -0.01769724 0.035842128 0.03732658
0001d0 66 7f cc 3c 7b eb d8 3d a0 ea 9c bc 58 be 48 bd
       0.024963092 0.10591789 -0.019154847 -0.04900965
0001e0 35 db ac 3d b4 f8 96 bd 83 7b db 3d 37 93 29 bd
       0.08440248 -0.07371655 0.10716917 -0.04140016
0001f0 12 41 bf 3d 4d 2d b2 bc 50 3c e9 3d ce 55 a3 3d
       0.09338583 -0.021750117 0.11388457 0.0797535
000200 26 55 18 be 0a 83 e2 3d b6 d0 a9 bc 61 4c 13 3d
       -0.14876232 0.1106015 -0.020729404 0.035961512
000210 22 01 11 3e bc 99 be 3d 11 83 90 3d b2 c6 96 bd
       0.14160588 0.09306666 0.07056249 -0.07362117
000220 e0 4f df bb a8 d4 28 3d a5 54 31 bd 39 9c 36 bd
       -0.0068149418 0.04121843 -0.043293614 -0.04458258
000230 93 f4 33 bd 10 00 e1 bd a1 7d 19 be c3 65 f4 bc
       -0.043934416 -0.1098634 -0.1498933 -0.02983368
000240 4d b2 21 3d 0e d0 3a 3c d1 d1 cb bd eb ea 88 3d
       0.03947668 0.011402143 -0.09952129 0.06685432
000250 f5 60 9b bd 7a bb 87 3d 0d 51 83 bd 05 ae 20 bd
       -0.075868525 0.06627555 -0.064119436 -0.039228458
000260 81 a5 03 3d 70 93 1a bd 29 1c b4 3c a6 4b 7c 3c
       0.03214026 -0.037738264 0.021986084 0.015398895
000270 9d db 0e bd a7 f4 eb 3d 45 02 eb bd 89 69 91 3d
       -0.03487741 0.11521273 -0.11475042 0.07100207
000280 f5 ab 46 3d e0 3f 9b 3d 2a 80 42 bd 04 4c 86 38
       0.048503835 0.075805426 -0.047485508 6.403777e-05
000290 a9 20 fc bc 4b 94 28 3e 66 22 81 bb a7 9a 24 bd
       -0.030777292 0.1646282 -0.003940868 -0.04018655
0002a0 c7 cf c7 3d 4c f0 b7 3d 8e 19 dc 3d 53 79 b4 bb
       0.09756427 0.0898138 0.10747062 -0.005507627
0002b0 b1 e0 17 3e df 14 1a be 0f 9a a9 3d 48 68 c0 3d
       0.14831807 -0.15047024 0.082813375 0.0939489
0002c0 d5 82 3f 3b bc 6a af bc 9e 70 13 3d 04 1d 44 3c
       0.002922227 -0.0214132 0.035996072 0.0119698085
0002d0 06 12 4b 3c 43 57 5b bd bb 89 9c 3c fc 17 f7 3c
       0.012394434 -0.053550016 0.019108644 0.030162804
0002e0 a8 21 1c 3b 33 e9 e8 3d 80 c8 a9 bd 88 c7 1b bd
       0.0023823772 0.11372604 -0.082901955 -0.038032085
0002f0 c0 d2 b2 bd 2b b5 9b bd 0d 21 9a 3d 45 c6 b0 3d
       -0.087316036 -0.076029144 0.07525835 0.08631567
000300 ee 43 25 3e 75 dc 41 3d 3a fb 3f 3c 6a a4 32 bd
       0.16139194 0.047329385 0.011717612 -0.04361383
000310 50 c5 82 bd 49 70 7d bd 57 c9 5b 3d 72 b6 c6 39
       -0.063852906 -0.06187466 0.05365881 0.00037901435
000320 a1 5e 05 be 63 29 60 3d c3 aa bd 3d 8f 94 ce 3d
       -0.1302438 0.05472697 0.09261086 0.10086929
000330 bc f5 cf 3d 70 96 94 bd f7 72 14 3e 09 ef 2f bd
       0.10154292 -0.07255256 0.1449698 -0.04295257
000340 f4 b8 f1 bc 1a 83 ea 3c c3 71 d0 bc 0f cb b7 bd
       -0.029507138 0.028626967 -0.02544487 -0.08974277
000350 ad 47 9f bd c6 13 01 3e 28 1e c6 bd 5e 39 a1 3d
       -0.07777343 0.12605199 -0.096737206 0.0787227
000360 51 8c c0 3b fc 60 eb bd 9f 74 51 3d 48 ac 88 bc
       0.005876102 -0.11493108 0.05113661 -0.016683713
000370 ce ed fd bb 8e 58 c8 3d 25 7f c9 bd 44 1d f2 3d
       -0.007749296 0.097825155 -0.09838704 0.11821988
000380 61 fc 4e 3e c2 cf 8d bd 98 af 9a bd 2d 1a a7 3d
       0.20213462 -0.06924392 -0.07553023 0.081592895
000390 a4 71 d8 3d de 40 13 be 81 b6 8f bc 0c a1 68 bd
       0.1056855 -0.14380214 -0.01754308 -0.05679421
0003a0 8b 49 38 bd 83 f2 aa bd 96 2c 6d 3d 5b 47 8f bd
       -0.04499201 -0.08347037 0.05790385 -0.06996032
0003b0 44 0b d0 3d 73 b7 be bd 0c 35 15 3d c0 11 9a 3d
       0.10158399 -0.09312334 0.036427543 0.07522917
0003c0 bd dc c6 bd 91 cd c1 3d 99 ad 2b bd 24 64 b9 3d
       -0.09710071 0.09463037 -0.041913603 0.090523034
0003d0 a3 d3 0e 3e 80 8b 92 3d 13 16 9d 3c a8 bb a2 bc
       0.1394792 0.07155514 0.019175565 -0.019864872
0003e0 45 41 95 3c e4 f3 28 bd 33 52 9d 3d d9 ce 2a bd
       0.0182196 -0.041248217 0.07681694 -0.04170117
0003f0 18 bc 86 3d a2 2b cd 3d 18 b5 51 bd ab 0e 96 3d
       0.06578845 0.10018088 -0.051198095 0.073270164

gru.weight_hh_l0 f4 [384, 128]
000000 77 f9 bd bd 5d 10 6e be 25 b8 46 be 2b 92 2c 3e
       -0.09276097 -0.2324843 -0.19406183 0.16852634
000010 ad fb 1f be c0 11 22 be 13 6c 31 3e 59 cc 8b bd
       -0.1562335 -0.15827084 0.17326383 -0.068260856
000020 e6 58 9b bd 58 43 19 3e 6f ca 64 3e 53 ea 29 be
       -0.075853154 0.14967096 0.22342847 -0.16593294
000030 8a 3c b2 3d b9 83 72 bd 71 d1 3c 3e 8d 09 13 3d
       0.08702953 -0.05920765 0.1843927 0.03589778
000040 21 c7 18 bd 4d 93 81 3d d3 4c 47 be d3 61 23 3c
       -0.03729928 0.063269235 -0.194629 0.009972054
000050 7e b7 00 3e 05 0c 2d 3e b5 7c 7f be da 0e c6 3d
       0.12569997 0.16899116 -0.24949916 0.096708015
000060 35 99 df bd 31 44 46 be d6 d9 85 bc 53 5f d2 bd
       -0.10917894 -0.1936195 -0.016339224 -0.10272088
000070 29 c0 e3 bd 54 27 69 3d 6d 0a cd 3c e7 49 1d be
       -0.11120636 0.05692227 0.025029385 -0.15360223
000080 7f 2b 1a be 31 aa 96 3d bf 52 54 bd d5 2e 69 3e
       -0.15055655 0.0735668 -0.051836725 0.22771771
000090 90 53 fa 3b 4f 5f 7a bd 42 00 1e 3e d1 56 5c 3e
       0.007639356 -0.06112605 0.15429786 0.21517493
0000a0 60 0c 80 3e 44 5e 82 3e 92 44 42 be a3 1d 43 3e
       0.2500944 0.25462544 -0.1897147 0.19054274
0000b0 84 7c 4f 3c bd a4 fe 3d 7b f5 f0 3d 44 42 2c bc
       0.012663964 0.12433765 0.11765572 -0.010513846
0000c0 e2 eb 9b bd e5 e0 8a 3d 33 5a 0b be 51 19 9c bd
       -0.076133505 0.067811765 -0.13608627 -0.07622016
0000d0 86 ee fb bd 49 88 16 bd 47 3f 5c 3e 09 85 60 3c
       -0.12301354 -0.036751065 0.21508513 0.013703593
0000e0 4d 82 4f be a5 81 ba bd 84 29 4e be 4e 4d d0 bd
       -0.2026455 -0.09106759 -0.20133024 -0.10170995
0000f0 8f 95 2b be de a5 30 be 0b 7e 4a 3e 3e 88 3a be
       -0.16756271 -0.17250773 0.19774644 -0.18216035
000100 34 3b 48 3e ca 60 5e 3e 76 d1 00 3c 94 db fd 3d
       0.19553834 0.2171661 0.007862439 0.12395397
000110 9f a0 1c be 94 ab 2f be 50 a6 6c 3e 22 13 7d bd
       -0.15295647 -0.17155296 0.23110318 -0.061785825
000120 dd d6 9e bc 6e 50 18 3e 12 7a 0f 3e 6b 6c 65 be
       -0.019389564 0.14874431 0.1401141 -0.2240464
000130 44 c8 59 be 28 10 f7 3d d3 5e 2f 3e 4b 00 00 3e
       -0.21267802 0.120636284 0.17126016 0.12500112
000140 8e 51 82 3d 44 d9 f1 3d 91 21 54 3d 2e 3b 2d 3e
       0.063632116 0.11809018 0.051789824 0.16917107
000150 45 63 7c 3c 87 d6 18 be a4 15 72 3e d8 d4 18 be
       0.015404527 -0.14925586 0.23641068 -0.14924943
000160 ea a5 a8 bd 32 3e aa 3b f5 a8 45 3c ff c9 1b 3d
       -0.082347706 0.0051954025 0.012064208 0.038034435
000170 6b 74 e3 bd 68 4a 57 be 9e 83 33 3d 87 81 2c 3d
       -0.11106189 -0.21024477 0.04382669 0.042115714
000180 7a 20 1e be 14 29 61 3e 0f e0 6c 3e 08 2a 20 3e
       -0.15442076 0.21988326 0.23132347 0.15641034
000190 32 f9 20 be a4 72 4c be 4e f7 af bd 83 5d 91 3c
       -0.1572006 -0.19965607 -0.085920915 0.017744785
0001a0 f3 44 e6 bd e9 4c 4d be 0b 4a 17 3e 56 d8 04 be
       -0.1124362 -0.2004887 0.14774339 -0.1297315
0001b0 18 c6 47 be a5 29 18 3c 4c 61 c2 3d a5 bc f0 3d
       -0.1950916 0.009287273 0.09491214 0.11754731
0001c0 8c e5 f6 bc 33 20 65 bd 27 b0 4d be a3 b3 77 3e
       -0.030138753 -0.05593891 -0.20086728 0.2418962
0001d0 e5 61 ca bd 81 1a 3d 3e 84 25 10 be 0d 55 72 3e
       -0.09881953 0.18467142 -0.14076811 0.23665257
0001e0 bf c7 67 be 89 e7 89 3d cf a3 7d 3e 87 e8 0c 3c
       -0.22634791 0.06733615 0.2476952 0.008600361
0001f0 e5 bc b2 bd 26 88 c9 bc 18 be 78 3e 0a b7 8f bd
       -0.08727435 -0.024601053 0.24291265 -0.07017334
000200 b1 25 53 bd fa 02 84 3c 90 ca 2c be cb d4 ef 3d
       -0.051549617 0.0161147 -0.16874146 0.11710509
000210 a7 68 dd bd 71 00 fc bd dd 09 c5 3c f1 4f 8b bd
       -0.108109765 -0.12304772 0.024052555 -0.06802357
000220 f9 f6 19 bd 2a 54 bf 3d 67 f4 e1 3d 56 9b c2 3b
       -0.037589047 0.09342225 0.11032944 0.0059389276
000230 6d 45 94 3b 1b 6a b6 bb d9 9e 18 bc 4e 43 c9 bd
       0.0045248778 -0.005566848 -0.009315216 -0.098272905
000240 c4 ab 10 bd 38 64 ef bd a2 fb 18 be ca 7a c8 bc
       -0.03532006 -0.11689037 -0.1493974 -0.024472613
000250 4f 08 19 3d 06 e0 56 3d 5a 65 f2 bd 71 4c 99 3d
       0.03736144 0.05245974 -0.118357375 0.07485283
000260 c2 5d 04 3e 8c e8 5a bd c0 46 bd bd 50 ea 22 be
       0.12926391 -0.05344443 -0.0924201 -0.15909696
000270 5d 58 0d 3e c6 a1 5a 3d 57 02 06 3c 33 4c f4 bd
       0.13803239 0.053376935 0.008179269 -0.11928596
000280 9a 6e db bd 16 dc cd 3b 1c 02 1c bd 7d 27 fa 3d
       -0.10714455 0.00628234 -0.03808795 0.12214563
000290 17 5d c7 3d 6d 1d da bd 6b c7 81 3d 0e c5 53 3b
       0.09734552 -0.10650144 0.06336864 0.0032313499
0002a0 5a 79 2e 3c 6b 2f 17 3e 89 dc ba bd ff c4 df bc
       0.01064905 0.14764182 -0.09124095 -0.027315615
0002b0 dc 5d bd bd a2 32 32 3d 27 1e 24 bc f0 32 e1 ba
       -0.09246418 0.04350532 -0.0100169545 -0.0017181318
0002c0 60 88 a7 bd e6 95 48 3a 03 39 2c be e0 76 e1 bc
       -0.08180308 0.0007651731 -0.16818623 -0.027522504
0002d0 df 54 5c bd e7 b8 46 bb c0 f6 34 3d e7 ec 19 bd
       -0.053791877 -0.0030322613 0.04418063 -0.037579443
0002e0 6a 9e 9b bd 64 06 06 be 46 e3 7e bd 57 ae d0 bd
       -0.075985745 -0.13088375 -0.062228464 -0.10189503
0002f0 10 86 ec bc f1 1e 99 3c 94 df d7 3d 3a 7d 58 bd
       -0.02887252 0.018691512 0.10540691 -0.0528538
000300 94 0f 09 3e 20 64 d3 3d 2b 12 13 3d 83 4a 42 3b
       0.13384849 0.10321832 0.035906 0.0029646463
000310 1e d1 00 be 70 cb b6 bd 8b 59 95 3d 46 ee 82 bd
       -0.12579772 -0.089255214 0.072924696 -0.06393103
000320 a3 3e 02 be 34 7d f6 3d b8 5a 09 3e 21 a0 1d be
       -0.12719207 0.12035599 0.13413513 -0.15393116
000330 6a ee ed bd 4b 38 ea 3c 2e 79 5a 3d 31 78 0d 3d
       -0.116177395 0.028591296 0.053338222 0.03453845
000340 0c d1 6a bc d5 62 e8 3d 12 7d 0b 3e 10 a3 7e bc
       -0.014332067 0.11346976 0.1362193 -0.015541807
000350 cf 93 ad 3d 92 e6 58 bd bf b9 14 3d d2 3a dc bd
       0.08475458 -0.052954264 0.036309954 -0.107534066
000360 e8 e6 32 be aa 57 21 ba 2e 15 ec 3c be 56 5c 3d
       -0.17470896 -0.00061547256 0.028818693 0.05379366
000370 67 ce 71 3d 0d dc ac bc 0f c9 3c bd 23 07 c1 bd
       0.05903473 -0.021101022 -0.046090182 -0.09425189
000380 43 8c f0 bd 1f e0 73 3d 62 dc ee 3d ab 65 2a 3d
       -0.11745503 0.05953991 0.116631284 0.041600864
000390 4c ca 07 bd 5d f8 11 bc b0 28 d6 3c 76 96 0d bd
       -0.03315191 -0.008909312 0.026142448 -0.03456732
0003a0 0c 43 00 bd 86 f4 38 3b 82 b1 5c 3d c1 59 9d bd
       -0.03131394 0.002822192 0.053880222 -0.07683135
0003b0 8b 76 14 be 8f e4 f0 3c 5b 8f e1 3c dd d9 d0 3d
       -0.14498346 0.02940586 0.027534178 0.10197804
0003c0 f7 07 4b bb a9 40 fc bd bb 1a 22 bd 1e f8 75 3d
       -0.003098009 -0.123170204 -0.039576273 0.060051076
0003d0 8b 89 c2 bd 81 3c fa 3d b3 c0 25 bd c0 86 76 bc
       -0.094988905 0.122185715 -0.040466975 -0.015046775
0003e0 f8 c9 1d be 07 1e c5 3d 2e f7 33 3d 24 61 47 3d
       -0.15409076 0.09624868 0.0439369 0.048676625
0003f0 f8 6e ab 3c 7a f7 aa 3c e1 24 09 3e a0 05 c8 bd
       0.020926937 0.02086996 0.13392974 -0.09766698

gru.bias_ih_l0 f4 [384]
000000 0a e7 69 be 01 ce de bd c5 ad 7a bd c1 12 b5 bd
       -0.2284204 -0.10879136 -0.061200876 -0.08841468
000010 04 96 ae 3b 85 1c 0d 3d ce a3 27 3c 78 21 8a bd
       0.005327942 0.034451026 0.010231925 -0.06744665
000020 08 34 98 3d 05 74 40 bd c9 54 fc 3d f5 1b b4 bd
       0.07431799 -0.046985645 0.12320859 -0.08794395
000030 2b ed 1b be 08 cd 6b bd 35 12 15 be 4c 7b 44 be
       -0.15227191 -0.05756858 -0.14557727 -0.19187659
000040 db f5 3c be 76 a5 dc bd 55 9b b5 bb 39 17 02 be
       -0.18453161 -0.10773747 -0.0055421987 -0.12704171
000050 b1 0a 9f bd 98 5a 1e bd 78 dd 13 be a9 ce fa bd
       -0.07765711 -0.038660616 -0.14439952 -0.122464485
000060 ec cb 48 bd d6 d9 db bd 36 67 b1 3c 52 86 d9 bc
       -0.0490226 -0.10734908 0.02165566 -0.026553307
000070 ad 09 22 3d 43 1c 1d 3d c5 83 23 bd bf 00 bd bc
       0.03956001 0.03835703 -0.039920587 -0.023071645
000080 c6 c3 e1 bc 87 49 2a be d5 54 07 be 3c 93 fb bd
       -0.027559172 -0.16629611 -0.13215955 -0.12283942
000090 f3 82 f2 3c 5a 56 4f 3c 44 00 0b be 71 4f 2a be
       0.029603457 0.012654865 -0.1357432 -0.16631867
0000a0 3b d3 de bd c5 f1 49 3d 77 14 c8 bd 30 e0 c7 bd
       -0.10880133 0.049302835 -0.09769528 -0.09759557
0000b0 bd 63 de 3d 9e 45 3c be 54 61 f0 3a 5c 53 ec bb
       0.10858867 -0.18385932 0.0018339553 -0.0072120856
0000c0 c6 72 e1 3c e2 c3 a3 bc eb ef 15 3d cf a4 91 3c
       0.027520549 -0.019990865 0.036605757 0.017778782
0000d0 cd 6c 4d bd 38 10 be 3d e6 c2 93 bd 0d c2 85 3d
       -0.05015259 0.09280437 -0.07214908 0.06531153
0000e0 60 84 b6 bd a6 a6 23 3d c8 40 6a be 34 11 3c be
       -0.08911967 0.03995385 -0.22876275 -0.18365937
0000f0 3b f0 8e bd 42 1f 1b 3b e6 41 fd bd cb dd 41 bd
       -0.06979414 0.0023669754 -0.12366085 -0.04733066
000100 4d e0 50 be 05 d3 ac bd f0 e9 fc bd f5 a0 5d be
       -0.20398064 -0.08438686 -0.123493075 -0.21643431
000110 73 60 62 3d 8f 70 69 3c c6 11 b4 bd 86 2d c1 bc
       0.055267762 0.0142480275 -0.087924525 -0.023581278
000120 2e af d5 bc 12 07 d8 3b c5 7d d9 bd 9d ac 14 bd
       -0.026084509 0.0065926397 -0.10619692 -0.03629743
000130 39 7f 5f 3c 8c fb 30 be 65 23 16 be e9 a1 30 3d
       0.013641172 -0.17283458 -0.1466194 0.04312316
000140 fb 13 0c 3e d8 36 e1 bc e3 76 28 bd 60 03 d3 bd
       0.13679497 -0.027491972 -0.041129004 -0.10303378
000150 74 69 fa bd 59 73 9f bd 5d e8 00 be 71 a7 86 bd
       -0.12227145 -0.07785673 -0.1258864 -0.06574906
000160 b5 58 65 bd 63 41 96 bc 6f ad 7e bd 85 b5 16 bc
       -0.0559928 -0.018341726 -0.062177118 -0.009198551
000170 15 4d 3c be 74 71 f2 bc a1 a6 1e be 45 a6 e6 b8
       -0.1838878 -0.029595114 -0.15493251 -0.00010998225
000180 c9 16 63 3d e1 72 3a 3c 06 cc db bd 53 e0 c2 bd
       0.05544165 0.011379928 -0.10732274 -0.09515443
000190 a8 e3 c5 bd 9a ed 19 be ab 1f b5 bc dd c8 32 bd
       -0.096625626 -0.15032044 -0.022109827 -0.04364859
0001a0 38 fd 08 3d 9d 86 0d be 98 9f 84 bb 9e 0d 2d be
       0.033444613 -0.13820882 -0.0040473454 -0.16899726
0001b0 63 3d 1d be 9f 3f 98 3d c4 38 1c be 29 6d 04 be
       -0.15355448 0.0743401 -0.1525603 -0.12932266
0001c0 c2 6f 92 bd fd dc 3f bd 10 b7 ae 3d 35 7f 30 3d
       -0.07150222 -0.04684161 0.0853101 0.043090064
0001d0 aa fb 32 3c ec 1d 19 be 25 6f 15 3d b9 b2 61 3c
       0.010924259 -0.1495282 0.03648295 0.013775521
0001e0 2f ec 05 bc 27 7d 42 be 75 2f 24 3e f8 43 8e 3d
       -0.008173986 -0.18993054 0.16033728 0.06946558
0001f0 a3 52 c5 bc f5 eb b2 bd c0 7f bc bd a3 9e 77 be
       -0.024087256 -0.087364115 -0.09204054 -0.24181609
000200 1a 5e 39 be 42 69 51 be db e1 59 bd e1 c9 46 be
       -0.18102303 -0.20450309 -0.05319391 -0.19412948
000210 33 76 75 bd 2d a0 9e bc a8 ce 33 bd 27 bd f1 3d
       -0.059927177 -0.019363487 -0.043898255 0.11803656
000220 49 c0 82 bb 47 88 4f bd 82 d4 8b bd 8f e2 9c 3d
       -0.0039902073 -0.050667074 -0.06827642 0.076604
000230 7c d6 cc bd 2a 2a 95 bd 62 03 42 3d b1 b5 11 bd
       -0.10001847 -0.07283433 0.047366507 -0.035573665
000240 19 4d 92 3d d5 ab 26 bd e4 82 5c 3d 39 56 2d 3e
       0.071436115 -0.040691216 0.053835765 0.16927423
000250 fd dc 87 bd 77 f5 ae bd 2e 37 0b be 92 60 a1 3d
       -0.06633947 -0.085429125 -0.13595268 0.078797475
000260 27 26 a0 3d 1a 3c 4b be 1c 1b 6f bd 64 73 14 bd
       0.07819777 -0.19847146 -0.058375463 -0.036242858
000270 1a 46 27 be 80 f9 70 3d 10 3e 47 bd 78 a6 45 bd
       -0.16335335 0.05883169 -0.04864317 -0.04825446
000280 8d e7 05 3d 9f dc 8f bc 85 25 32 ba 32 42 36 bc
       0.032691527 -0.017561255 -0.0006795752 -0.011124181
000290 19 b1 20 3e ad 6c 81 3b ad d7 0e be c4 aa bc bd
       0.15692557 0.0039497227 -0.13949461 -0.092122585
0002a0 45 ec 41 be 7e 6c 46 bc 6b ca 16 be 8b cc d0 bd
       -0.18937786 -0.0121108275 -0.14725654 -0.101952635
0002b0 35 f4 44 3e 59 92 b9 3d c7 35 8a bd cc 8b b5 3d
       0.19233783 0.09061117 -0.067485385 0.08864555
0002c0 11 cb 08 be 9d 78 37 bc 48 f2 e0 bd c5 2e e2 bd
       -0.13358714 -0.01119819 -0.109837115 -0.11044077
0002d0 ba 41 96 bd 46 27 03 be d3 1d f6 bc e8 04 34 3c
       -0.07336755 -0.1280795 -0.030043518 0.010987498
0002e0 11 e6 36 bd 0e 38 28 3e 61 2b 63 be f2 44 31 3d
       -0.044653002 0.16427633 -0.22184516 0.043278642
0002f0 46 f4 09 bd 75 35 81 3d 54 04 16 bd f1 b4 ff bc
       -0.033680223 0.06309024 -0.03662522 -0.03121421
000300 64 95 19 be 31 02 34 bd 9d 2a 39 be 7d 0f 4c bd
       -0.14998394 -0.043947402 -0.18082662 -0.04981946
000310 b6 4f 6b bc 69 c6 93 bd bd 8e cd bd 48 37 97 bd
       -0.014362266 -0.07215578 -0.10036991 -0.07383591
000320 ec 49 8a bd ec e3 a0 3d 50 a6 dc bd 0b 23 5b 3d
       -0.06752381 0.07855973 -0.10773909 0.053500216
000330 52 55 de 3d 84 70 48 bd 06 59 8f bd 11 7c 63 bc
       0.10856117 -0.04893543 -0.06999402 -0.01388456
000340 43 59 90 3d 71 d2 15 be 19 68 81 3b 62 6c 96 3d
       0.07048275 -0.14631058 0.003949177 0.07344891
000350 c2 d1 db 3d c5 36 b2 bd a2 b3 40 be 21 0c 0a be
       0.107333675 -0.08701853 -0.18818524 -0.1348119
000360 d9 7c 03 bd 91 33 92 3d d2 77 de 3d b2 08 4f bd
       -0.032101486 0.07138742 0.10862698 -0.050545402
000370 e5 ae fd 3d be 7d fa bb 37 6a d9 b9 42 39 f7 3d
       0.12386874 -0.007644384 -0.00041468602 0.12071468
000380 77 59 10 be 4d ca 83 bd 8b 89 13 bd a8 02 51 3d
       -0.14096628 -0.0643507 -0.036019843 0.051027924
000390 70 4e 88 bd a4 a5 8c 3d 09 d9 e5 3c c0 c5 38 3e
       -0.06655586 0.06867531 0.028057592 0.18044186
0003a0 59 e2 c9 bb 0e 56 49 bd e8 8e 08 be f7 49 09 bd
       -0.006161016 -0.049154334 -0.13335764 -0.033517804
0003b0 eb cc 54 be 31 1b 1a 3d 62 ec f6 bc cd 54 f4 bd
       -0.20781295 0.037623588 -0.030142013 -0.11930237
0003c0 1e ee b2 3c b4 5f b3 3c 99 a1 18 bd d1 3c 0c be
       0.021842059 0.02189622 -0.037263487 -0.13695075
0003d0 40 cf e3 bd 4f 69 1b be 49 5d 4a be e2 e7 81 3d
       -0.11123514 -0.15176891 -0.19762148 0.06343056
0003e0 5b 7c 7f bd 87 5a 0f 3e 20 cb d8 bd c2 1b 96 3c
       -0.062374454 0.13999377 -0.10585618 0.018323783
0003f0 77 72 a1 bd b9 01 f9 bb f0 65 c7 bd d8 60 78 bd
       -0.078831606 -0.0075990823 -0.0973624 -0.060639232

gru.bias_hh_l0 f4 [384]
000000 48 94 79 be d2 64 ee bc 24 fe 28 bd bb 6c a7 bd
       -0.24372971 -0.02910081 -0.041257992 -0.081750356
000010 89 aa 0d 3d 25 42 0b 3d c9 7a 9d bc 60 35 c9 bd
       0.034586463 0.033998627 -0.019223588 -0.098246336
000020 25 88 af bc c4 52 15 bd a6 de 14 3e ec b7 e9 bc
       -0.021427223 -0.036455885 0.14538059 -0.028530084
000030 3b 55 e4 bd 15 e3 7b bd d0 5c f5 bd 16 89 72 bd
       -0.11149069 -0.06149586 -0.11980593 -0.059212767
000040 99 18 76 be 2b d0 ed bd 86 44 00 3d fa a8 c9 3c
       -0.24032821 -0.116119705 0.03131535 0.024616707
000050 f0 2e 17 be e8 d1 a2 bc 25 51 2e be 50 21 d8 bd
       -0.14763999 -0.019875482 -0.17023142 -0.10553229
000060 82 e1 d7 3b 72 2d b5 bd 7f dd c4 3d da 98 47 bd
       0.006588162 -0.08846559 0.096125595 -0.048729755
000070 88 78 69 3d ea 05 65 bc ad 7d 10 bd 7d 68 0c 3d
       0.056999713 -0.013978461 -0.035276104 0.034279335
000080 ef dc 47 3d 56 0d 14 be 73 15 2f be ff 77 0c be
       0.048794683 -0.14458212 -0.17098026 -0.1371765
000090 19 eb 00 3e 34 d9 9a bc 04 72 10 be 4e b4 2c be
       0.12589683 -0.018902399 -0.14105994 -0.16865656
0000a0 78 cb 43 be 43 ce b4 bd 8e ac 0e bd 8c 82 00 be
       -0.19120586 -0.08828404 -0.03483253 -0.125498
0000b0 af d8 76 3c 62 1b 22 be 13 55 d2 bd 8a ee f6 bc
       0.01506631 -0.15830758 -0.10270133 -0.030143041
0000c0 4f 47 a7 bd 93 e8 94 bd 84 c6 6c bc 56 87 d1 3d
       -0.08167898 -0.072709225 -0.014451627 0.102308914
0000d0 18 a6 e7 bc ca 49 f5 3c c2 1f fa bc 91 84 48 3c
       -0.028277442 0.029942412 -0.030532721 0.012238638
0000e0 26 76 b1 bd 3c d1 e6 3d e9 dd 30 be 70 45 31 bd
       -0.08665113 0.11270377 -0.17272152 -0.04327911
0000f0 3b ed be bd 71 12 96 bd 66 67 1a be 1a 2e e4 bd
       -0.09322592 -0.07327736 -0.15078506 -0.11141606
000100 41 bf 24 be 06 6b de bd e3 7c 61 be 45 1d 57 be
       -0.16088583 -0.10860257 -0.22020297 -0.21007259
000110 25 d1 5e ba 0a 57 c4 3c e1 a7 0a be 66 52 91 bd
       -0.0008499793 0.023967285 -0.13540603 -0.070957944
000120 fc b4 87 bd e5 fa 82 3d 3c 52 25 bd 82 bc 1d 3d
       -0.06626317 0.063955106 -0.040361628 0.038509853
000130 af a6 df 3d d3 60 56 bc 5b 43 23 be a6 8e ab 3c
       0.10920464 -0.013084608 -0.15943663 0.020942044
000140 1c 57 08 3e c4 01 cf bd 3b 3f 3b bd 0b 35 a6 bd
       0.1331448 -0.10107759 -0.0457146 -0.08115586
000150 91 04 2b be 18 35 82 3c 7d 9c 15 bd 9f a0 5b be
       -0.1670096 0.015894458 -0.036526192 -0.21447991
000160 a3 91 b0 bc 34 4f 23 3a 55 2b 58 bd 78 bc 40 bc
       -0.02155382 0.0006229759 -0.0527757 -0.011763684
000170 13 e6 b5 bc 24 a0 83 bd c4 28 1d be 7b 0f df bd
       -0.022204434 -0.06427029 -0.15347582 -0.108916245
000180 f1 da 7d bd 5c 62 65 bd cb 87 58 bd 21 4b 00 3d
       -0.061976377 -0.056002006 -0.052863877 0.03132165
000190 15 5c 8e bd 48 fe 0d bd ef dc bc bc 88 45 60 bd
       -0.06951157 -0.03466633 -0.023054568 -0.05475381
0001a0 ba 57 b0 3b 20 9b 10 bd c6 c9 92 3d 37 a8 03 be
       0.0053815516 -0.03530419 0.071673915 -0.12857138
0001b0 32 6b 20 be 65 7c dd 3d c2 ab ea bd e0 14 e1 bd
       -0.15665892 0.10814742 -0.114585415 -0.1099031
0001c0 fb 0f f0 3c 1e 54 0f be 6c 0f e6 3b 86 f0 c6 bb
       0.029304495 -0.13996932 0.0070208814 -0.006071153
0001d0 75 c3 b5 bd 84 38 6c bd 59 94 e8 bd 2c 5e 85 bc
       -0.08875171 -0.057671085 -0.1135642 -0.016280256
0001e0 24 df b9 bc 50 6a 1f be ae d6 9a 3d 80 2d 80 3d
       -0.02268941 -0.15567899 0.07560478 0.062586784
0001f0 7d 48 c8 3c 8e a9 92 bd c2 cc 12 be bf 6a 1e be
       0.024448628 -0.07161246 -0.14335921 -0.15470408
000200 31 6c 7f be b0 e1 36 be 1d 66 87 3d 7e 56 49 be
       -0.24943615 -0.1785953 0.066112734 -0.196619
000210 a7 3d bf bc b7 50 94 bc 50 22 b7 bc d1 95 eb 3d
       -0.023344828 -0.018104894 -0.022355229 0.115031846
000220 22 f8 0c 3d cb 1c 06 be bf 57 0c bd 3c 8b b0 3c
       0.034416325 -0.13096921 -0.03426337 0.021550767
000230 f1 c4 e5 bd d2 5c 05 be 33 21 fa 3c c6 76 e9 bd
       -0.11219204 -0.1302369 0.030533409 -0.11399607
000240 fd e6 ab 3d b4 9a ac 3d 15 a2 34 3e 27 cb fa 3d
       0.08393667 0.08427945 0.17639954 0.122457795
000250 b6 30 5e be 07 38 8c bd 12 c9 7a bd 1d 10 35 3d
       -0.21698269 -0.06846624 -0.06122691 0.04420482
000260 cf 09 8a bd 43 d7 00 be 13 2d 65 3b c2 d4 ff 3c
       -0.06740152 -0.12582116 0.0034969493 0.03122938
000270 dc 84 1b be bf 4e 6c bd a6 87 92 bd a6 71 bc 3c
       -0.151874 -0.057692286 -0.07154779 0.02300341
000280 d3 f2 93 bb 2c e2 8e bc 9d 03 5b 3d 61 71 b1 3d
       -0.004515031 -0.017441832 0.053470243 0.086642034
000290 87 e5 d1 3c 69 4a ba bc b8 8a b6 bd 86 c4 64 bd
       0.025622142 -0.02274056 -0.08913177 -0.05585148
0002a0 e1 3d 19 be 35 7c cf 3d 08 0b eb bc 8a 82 d6 bd
       -0.14965011 0.101311125 -0.028691784 -0.10474117
0002b0 a7 d8 87 3e 0d 11 7a 3d 1c fc 9a bb 87 7b b5 3d
       0.2653248 0.061051417 -0.004729761 0.088614516
0002c0 ab 20 bf bd 54 37 0c 3d 17 f1 55 be f5 4c 22 bd
       -0.09332403 0.034232453 -0.2089275 -0.039624173
0002d0 b0 e0 7b bd eb 28 0e be df 9f 54 bd f4 70 a4 3c
       -0.061493576 -0.13882796 -0.051910277 0.020073391
0002e0 6c 1d 24 be db 0f 69 3c 43 70 43 be f0 61 f8 3b
       -0.16026849 0.014224972 -0.19085793 0.0075800344
0002f0 e1 31 98 bd a1 5c 30 bd 40 5a 41 3d a0 2c 95 bd
       -0.07431389 -0.043057088 0.04720521 -0.07283902
000300 a2 6d 71 bc a5 f8 48 bd f0 d8 91 be e8 e7 de 3c
       -0.014735611 -0.04906525 -0.28485823 0.02721019
000310 85 7e 12 3c 80 c1 ac bd ec 8b ca bd 42 e3 24 bc
       0.008941297 -0.08435345 -0.09889969 -0.010063948
000320 de f9 a1 bd 5e 1a b3 3d 47 81 7c 3d 71 4f aa bc
       -0.079089865 0.087452635 0.061646726 -0.020789834
000330 bc 8d f3 3d 47 23 37 bd 35 c4 1d be c1 22 e9 3c
       0.11892268 -0.044711377 -0.15406878 0.028458955
000340 09 d8 63 bb d4 77 3d be 1b f0 97 bd 2c be 6f bc
       -0.0034766218 -0.18502742 -0.07418843 -0.014632743
000350 08 a7 d5 3d 08 4f 9b bd e1 89 70 bd 78 d9 01 be
       0.10432249 -0.075834334 -0.05872524 -0.12680614
000360 12 42 46 bd 53 c9 77 bd fc 0a 58 3e a1 db 0d be
       -0.048402853 -0.060494732 0.2109794 -0.13853313
000370 b8 e8 02 3e 39 f9 d4 3c 1e 80 37 3d 3d f8 f9 3d
       0.12784088 0.025997745 0.044799916 0.12205551
000380 5f 75 63 be 98 7e 20 be 06 28 3b bd 03 c1 89 3d
       -0.22212742 -0.15673292 -0.045692466 0.06726267
000390 a9 c3 7f bb f0 b2 a3 3c fb 1f be bd a9 ad 04 3e
       -0.0039026535 0.019982785 -0.092834435 0.12956871
0003a0 03 c0 58 bd 03 1b 8e bd e1 09 18 be cb 68 46 3d
       -0.05291749 -0.06938746 -0.14847519 0.048439782
0003b0 45 98 53 be c5 3e b8 bd 8a ce bd bd 6c 3a 1a 3c
       -0.20663555 -0.08996347 -0.0926791 0.009413343
0003c0 a4 c9 50 3d 87 e8 b8 bd 99 1b 50 bd e5 df 3d be
       0.05097355 -0.09028726 -0.05080757 -0.1854244
0003d0 f5 56 43 be 0a e8 92 3c 7b 34 0c be d8 ff 16 3d
       -0.1907614 0.01793291 -0.13691895 0.036865085
0003e0 e3 29 15 be 20 9d 25 3c c9 88 98 bd 60 e3 d2 3d
       -0.1456676 0.010108262 -0.07447965 0.102972746
0003f0 47 54 87 bd 88 ec 23 bd 22 93 63 bd 41 a3 0e 3d
       -0.066078715 -0.040020496 -0.05556024 0.03482366

dense.weight f4 [46, 128]
000000 54 54 09 3e 2f f9 87 be 0f 30 4c bd e3 8f 3d bc
       0.13411075 -0.265573 -0.04985052 -0.01156995
000010 1f 8d 2e 3e 21 df 0a be 45 16 e0 bd b5 9e ae be
       0.17046021 -0.1356168 -0.109417476 -0.3410546
000020 06 a2 9b be e7 e8 d2 bd d4 34 3c 3e e2 9e 1d be
       -0.30397052 -0.10298329 0.18379527 -0.1539264
000030 6e cf a5 3d b7 9f 2d 3d c0 e8 bf 3d f5 75 25 bd
       0.08096205 0.042388644 0.093705654 -0.040395696
000040 11 27 f4 bd 05 6f c2 bd b9 96 ff bc 03 bc b5 bc
       -0.11921514 -0.094938315 -0.0311998 -0.022184378
000050 62 32 b2 bd 5d 8a ce bd f0 4e fd bd 59 72 0a 3e
       -0.08701016 -0.100849845 -0.12368572 0.13520183
000060 dc 37 37 bd a1 b2 28 be c9 19 8f 3d 52 78 94 3d
       -0.044731006 -0.16474392 0.0698734 0.07249512
000070 d9 f6 6f 3a f0 a6 61 3c 1c 80 29 bb 82 e0 35 be
       0.00091539096 0.013772711 -0.0025863713 -0.17761424
000080 39 ea 74 3d 90 e7 2c bd 3a 23 d2 bd db 1f a3 3e
       0.059793685 -0.042213023 -0.10260625 0.3186024
000090 ca 43 6f 3e f4 1a b9 3d 4a 02 5a bd 5d b7 21 3e
       0.23365703 0.09038344 -0.05322484 0.15792604
0000a0 e1 aa 4b bb 2f 51 32 3e 2d f2 7d 3d 6c 04 78 be
       -0.0031077194 0.17413782 0.061998535 -0.24220437
0000b0 2b 04 01 be 2d da 8f bd 69 19 c7 3c fd 5f fb bd
       -0.12599246 -0.070240356 0.024304109 -0.12274168
0000c0 a0 1a e9 3d 10 fe 56 3d 13 b6 e1 bc d6 3f 00 3e
       0.113820314 0.052488387 -0.02755264 0.12524351
0000d0 70 ad 45 be 8a a3 da 3d dc fd 7a 3e ac a1 d3 bd
       -0.19304442 0.10675724 0.24510902 -0.10333571
0000e0 8a c5 44 be 18 db b1 be 54 c3 d8 bd 76 6f a2 be
       -0.1921598 -0.34737468 -0.10584131 -0.31725663
0000f0 86 26 c0 bd 80 79 b7 be be b9 11 be b6 ef 0d 3e
       -0.09382348 -0.35834885 -0.14231011 0.13860974
000100 cd 13 03 be 24 63 17 3d 80 98 8f bd c6 a9 13 bc
       -0.12800522 0.036959782 -0.07011509 -0.009012645
000110 10 8d cc bd e4 0e 31 be de 1c 30 3e e6 f7 28 be
       -0.09987843 -0.17290837 0.17198512 -0.16500816
000120 06 1f b0 bd eb ba 99 3c 56 d2 84 bc 34 b8 89 3d
       -0.08599667 0.018765887 -0.016213577 0.06724587
000130 05 c0 2b be f6 d3 83 3e 52 c7 21 be b6 79 9f bd
       -0.16772468 0.2574765 -0.15798691 -0.077868864
000140 b4 8a 1b 3e 90 00 79 3d 5b ed 28 bb 57 03 6b 3e
       0.1518963 0.060791552 -0.002577624 0.22950493
000150 90 9c 61 be 15 70 b9 3d f0 5b ae 3c 63 a9 39 be
       -0.2203238 0.09054581 0.021284074 -0.18131022
000160 6c a4 42 3d 84 f4 f6 bc 08 71 84 bd 5b 80 a3 bd
       0.047520086 -0.030145891 -0.064668715 -0.07983466
000170 80 e2 2a 3e db cf 17 be 6f fc 97 3c 3e 4f 27 3e
       0.16687965 -0.14825384 0.018552987 0.16338822
000180 a1 02 32 bd 26 47 c3 3d 7f bb 89 bd 98 1c 09 3e
       -0.04345954 0.09535055 -0.06725215 0.13389814
000190 ed 05 b9 bd cb ba 70 be ee f2 28 3e b5 ab 3c be
       -0.090343334 -0.23508756 0.1649892 -0.18424876
0001a0 80 a1 b4 be 85 1b d8 bc 4e a7 ac 3e 09 0f d6 3d
       -0.35279465 -0.02638031 0.33721393 0.104520865
0001b0 fa c1 41 3d b8 60 3d be 6c 46 26 3e dd e3 82 3e
       0.04730413 -0.18493927 0.16237801 0.2556447
0001c0 1d 30 9b bc c6 ff 23 3e aa f7 4e 3e c8 ff 6c 3d
       -0.01894384 0.16015539 0.20211664 0.05786112
0001d0 e9 51 8e bd 78 9a c1 3c 92 df aa bc a9 19 38 3e
       -0.06949217 0.023633227 -0.02085856 0.17978539
0001e0 55 19 2b bc 50 86 19 3e ba 9e 9d 3e 8e 39 45 3e
       -0.010443051 0.14992642 0.3078516 0.19260237
0001f0 b2 88 b6 be e6 fa e0 bc 28 c0 0f 3d 69 35 81 bd
       -0.35651165 -0.027463388 0.035095364 -0.06309015
000200 92 fc cb 3d 42 1e 37 be 28 b6 a4 3c da 0a 70 bd
       0.09960283 -0.17882636 0.02010639 -0.0586041
000210 e3 8b 5d 3e dc 91 57 be 58 e0 33 bd ae d0 92 be
       0.21635394 -0.21051735 -0.043915123 -0.28674835
000220 d9 27 ae be 42 10 38 be ec ec 52 3e a3 ed 16 be
       -0.34014776 -0.17974952 0.20598191 -0.14739089
000230 e4 3f e0 3d 32 13 dd 3b 3b 7f 64 3d 5c 90 cc bd
       0.10949686 0.006746673 0.0557854 -0.09988472
000240 95 ff c2 bd 8d ae f0 bd 8f ed d2 bc 2c 02 88 3d
       -0.09521405 -0.11752043 -0.025748042 0.06641039
000250 32 5e 91 3c 3f a5 14 3b ec e2 8c bd 4a da c1 ba
       0.017745111 0.0022681502 -0.068792194 -0.0014789787
000260 68 e1 0e bd 9e 00 08 be 2d e8 b5 3d fa 4c 5f 3d
       -0.034882933 -0.13281485 0.08882175 0.05451677
000270 82 90 c9 bd 1a 7c ca 3d 4b e8 87 3d 4d be 85 bc
       -0.09842016 0.09886952 0.06636103 -0.016326094
000280 4f 6a 32 3e 59 df a2 bd 07 3c c5 bd 7d 85 a5 3e
       0.17423366 -0.079527564 -0.0963059 0.32328406
000290 15 b7 7d 3e 75 bf a9 3d 7f fd 8a bd fa 4a 77 3e
       0.24776872 0.08288471 -0.06786632 0.24149695
0002a0 72 52 9a bc 7f 52 07 3e 07 a0 80 3d 08 7d ef bd
       -0.018838141 0.13215064 0.06280523 -0.1169377
0002b0 1c 4d f7 bd 30 11 0d 3b 9e 4f 0b 3b b7 2f 78 be
       -0.12075254 0.0021525137 0.0021257172 -0.24236952
0002c0 c5 a4 ac 39 ca b3 0d bc 6f de 9f 3d 40 6a a6 3d
       0.0003292916 -0.008648822 0.07806098 0.08125734
0002d0 16 6d 75 be 7b 68 b3 3d 9a bd 13 3e 10 cd d5 bd
       -0.23967394 0.087601624 0.14427796 -0.10439503
0002e0 a1 02 7b be ce da dc be 27 f0 ee bd e4 84 e2 be
       -0.24512722 -0.43135685 -0.11666899 -0.44242013
0002f0 8f a5 2a bd c4 8d ba be 98 6c 43 be 78 74 0a 3e
       -0.041661795 -0.36436284 -0.19084394 0.13520992
000300 a9 b4 59 bd c5 13 aa 3d fe da 0e be 22 c2 a0 bc
       -0.053150807 0.08304552 -0.13950726 -0.01962382
000310 fb 63 06 be c8 7d 80 be 0d 01 f7 3c e5 58 8b be
       -0.13124077 -0.25095963 0.030151868 -0.2721626
000320 44 d0 01 be a8 d5 c3 3d fc bd b4 3d b1 87 9b bc
       -0.12677103 0.09562236 0.08825299 -0.018985601
000330 ba 58 9d be bb cf b7 3e 7e 50 11 be 13 2c 5e 3d
       -0.30731755 0.35900673 -0.14190862 0.05424125
000340 4d 31 1b 3e 3d be aa 3c dc 47 dd 3c d1 96 a2 3d
       0.15155526 0.020842666 0.027011804 0.07938922
000350 ca ed 25 be a2 e8 b3 3d 9f 31 c7 bd 6a 57 11 be
       -0.1620399 0.087846056 -0.09726261 -0.14193502
000360 4c b7 bd bc 1b 9e f7 bd 5e 18 0d be 4f 7d 22 bb
       -0.023158692 -0.12090703 -0.13778827 -0.0024793928
000370 cd ba 04 3e dd 71 e4 bd aa bf bd 3d 11 69 85 3d
       0.12961884 -0.1115453 0.09265073 0.065141805
000380 c4 bb bc bd 00 bc 00 3e 6a 79 c3 bd 5c 60 02 3e
       -0.09215501 0.12571716 -0.09544642 0.1273207
000390 4b 63 16 3c 34 be 5d be 09 96 3d 3e 96 a8 98 be
       0.009178947 -0.21654588 0.18514265 -0.2981612
0003a0 53 1c b1 be 6b 09 56 3d 05 6e a7 3e a9 89 cc 3d
       -0.34591922 0.052255075 0.32701126 0.09987194
0003b0 4a ff 01 3e e8 28 c9 bd 95 ba e2 3d f9 fd 60 3e
       0.12695041 -0.098222554 0.11070744 0.21971883
0003c0 26 e7 ba 3d 85 5e 65 3e 61 05 99 3d 14 9a 58 3d
       0.09126119 0.22399338 0.07471729 0.052881315
0003d0 78 87 83 3d ee 39 6d bc 97 8b 9d bd e6 a7 6a 3e
       0.06422323 -0.014479144 -0.0769264 0.2291561
0003e0 67 af 80 3b b0 b4 b8 3d f2 9b c6 3e ed 03 a3 3d
       0.0039271596 0.090188384 0.38790852 0.07959733
0003f0 43 36 c4 be 86 07 47 3c 6f 0c a2 3d e8 cf 93 bd
       -0.38322648 0.01214779 0.07912528 -0.07217389

dense.bias f4 [46]
000000 19 d8 92 be b9 a6 b1 be 1a 93 56 be 69 26 41 be
       -0.28680494 -0.34697512 -0.20954552 -0.18862309
000010 2e 62 33 bd 82 3c 89 be 7a 8e a1 3c a4 0a 27 be
       -0.043794803 -0.26803976 0.019721258 -0.16312653
000020 22 05 02 be ba 7a 35 be c0 b0 03 be fb 66 27 be
       -0.1269727 -0.17722598 -0.12860394 -0.16347878
000030 59 e9 45 be 0e 24 d5 bd ec 8d 16 be d3 d9 e5 bd
       -0.19327296 -0.104072675 -0.14702576 -0.11223187
000040 00 af 70 be 2d 09 04 be cc 91 55 be aa f6 e2 bd
       -0.23504257 -0.12894125 -0.20856398 -0.11082204
000050 6d 04 86 3d f6 7a 3c be 67 c2 d2 bd 61 37 9c bd
       0.06543813 -0.18406281 -0.102909856 -0.0762775
000060 49 7c 30 be 44 f0 66 be ee 25 fe bd a5 56 f9 3a
       -0.17234911 -0.22552592 -0.12409578 0.0019023014
000070 b7 dd 7b bd 3c 6b c5 bd 76 52 53 be 4f e6 8f bd
       -0.06149074 -0.09639594 -0.20636925 -0.0702635
000080 8e 3d c7 bd 10 ef e3 bd 04 56 3e be 0e eb 74 3d
       -0.097285375 -0.11129582 -0.185875 0.059794478
000090 48 75 44 be 72 dd 2c bd 46 63 0b be 87 c3 44 bd
       -0.19185364 -0.042203374 -0.13612089 -0.048038032
0000a0 13 be 45 be 76 b1 0a be 3d cb 21 be 26 69 27 be
       -0.19310789 -0.13544258 -0.15800186 -0.16348705
0000b0 a6 24 52 bd f1 25 72 be
       -0.051304482 -0.23647286
