data/encoder_bin.pt (torch_old, 623509 bytes, 5 tensors)

embed.weight f4 [29, 256]
0	0x3f30fd41	0.69136435
1	0x3f4c8673	0.79892653
2	0x3e583d49	0.21117128
3	0xbf0cc3cb	-0.54986256
4	0xbd1c7a8f	-0.03820282
5	0x3fd80c51	1.6878759
6	0xbf4c318b	-0.79763097
7	0xbe05b04b	-0.13055532
8	0xbe9f6d4a	-0.31138068
9	0x3f551d5a	0.8324791
10	0x3f972757	1.180888
11	0x3e3e08f0	0.18558097
12	0xbf658e8f	-0.8967065
13	0xbf1600ab	-0.5859477
14	0xbf79c582	-0.97567
15	0x3eaf628e	0.3425488
16	0x3fad04fc	1.3517146
17	0x3f986e95	1.1908747
18	0x3fdb8653	1.7150367
19	0xbf895d59	-1.0731612
20	0xbda3191a	-0.07963772
21	0xbfac35c1	-1.3453904
22	0xbec98b7f	-0.3936424
23	0x3e64a3a1	0.22328044
24	0xbe8813bf	-0.26577565
25	0xbf47b83b	-0.7801549
26	0x3f5f30ef	0.8718404
27	0xbd80faab	-0.06297811
28	0x3f50bd23	0.815386
29	0xbe12972c	-0.1431548
30	0xbfce9e27	-1.6142014
31	0xbff2aaaa	-1.8958333
32	0x3f4fbd8b	0.81148595
33	0xbf42f2e8	-0.76151896
34	0xbd74b2a3	-0.059740674
35	0xbf93fa5d	-1.156078
36	0xbee1bc4c	-0.44088972
37	0xbf7b921f	-0.9826984
38	0x3ffb38c5	1.96267
39	0xbf3c8513	-0.73640555
40	0xbf8f6b40	-1.1204605
41	0x3c1dfe27	0.009643114
42	0x3f6ed202	0.93289196
43	0x3f909549	1.1295558
44	0xc0056317	-2.084173
45	0x3e06b7b8	0.1315602
46	0x3cf5f81a	0.03002553
47	0xbec8fdaa	-0.3925603
48	0x3fda6555	1.7062174
49	0xbf3ed8e8	-0.7454972
50	0xbfd46da0	-1.6595955
51	0xbed3a896	-0.41339558
52	0xbe8ef2c4	-0.2791959
53	0x3edb7eb1	0.42870095
54	0xbfb998f7	-1.4499806
55	0xbf37990f	-0.71717924
56	0x3f2b6863	0.66956156
57	0xbf0fa2f4	-0.5610802
58	0xbe8c4175	-0.2739369
59	0xbf934e67	-1.1508301
60	0x3ee17cbf	0.44040486
61	0x3e275e81	0.16344644
62	0x3e6b69c4	0.22989565
63	0x3f84f361	1.0386773
64	0xbfa9c493	-1.3263115
65	0xbe59a373	-0.21253757
66	0x3cf4a4ca	0.029863734
67	0xbfffd490	-1.9986744
68	0xbf5af381	-0.8552781
69	0x3eefc685	0.46831146
70	0x3ed44330	0.4145751
71	0x3fbc8b2a	1.472997
72	0xbf64510c	-0.8918617
73	0xbfd75150	-1.682169
74	0xbf99af5f	-1.2006644
75	0xbee3d67a	-0.4449957
76	0xbe7fe121	-0.24988224
77	0x3b45ee58	0.0030201878
78	0xbec40256	-0.38283032
79	0xbf90e296	-1.1319149
80	0x3f838cc0	1.0277328
81	0xbf9897b7	-1.19213
82	0x3f3f72d8	0.7478461
83	0x3f92c390	1.1465931
84	0x3ef9f7e7	0.48821947
85	0xbd9c9e1b	-0.07647344
86	0x3fb7a70f	1.4347857
87	0xbe4d4f2c	-0.20049733
88	0xbf393ea3	-0.723612
89	0xbc254ae9	-0.010088661
90	0x401849f1	2.379513
91	0x3ea56d11	0.32309774
92	0x3ff8b9bd	1.9431683
93	0x3e9ac54f	0.3022866
94	0x3f17dcbe	0.593212
95	0xbf609211	-0.8772288
96	0x3ec241f3	0.3794094
97	0xbebc2275	-0.3674504
98	0xbf5aafb7	-0.8542437
99	0x4011ce75	2.2782261
100	0x3facd533	1.3502563
101	0x3cfb50cd	0.030678177
102	0x3e887ca7	0.26657602
103	0x3e2b52f6	0.16730866
104	0xbeb70396	-0.35744923
105	0xbf4486ed	-0.7676838
106	0x3d604054	0.054748848
107	0x3e16d687	0.14730273
108	0xbea1d6a9	-0.31609085
109	0x3e6ab5c9	0.22920908
110	0xbf4ff1fe	-0.81228626
111	0x3f23e41a	0.6401993
112	0x3fbcd1f9	1.4751579
113	0x3ff4db70	1.9129467
114	0xbfe0688f	-1.7531909
115	0x3f5bef67	0.85912174
116	0xbf02e97b	-0.5113751
117	0xbfe557b5	-1.7917391
118	0x3e232395	0.15931542
119	0xbe86cb4a	-0.26326972
120	0x3eef61a5	0.46754184
121	0xbde139be	-0.109973416
122	0xbd99f39c	-0.07517168
123	0x3e8fef1f	0.28112122
124	0x3fca8da8	1.582448
125	0xbf443a69	-0.76651627
126	0xbf3c633e	-0.7358893
127	0x3eef3e7b	0.46727356
128	0x3f6e0cf7	0.9298853
129	0xbfd5fa48	-1.6717005
130	0xbe94e2a5	-0.29079166
131	0xbeafa012	-0.3430181
132	0xbf26c803	-0.65148944
133	0xc0021231	-2.0323603
134	0x3c2a4d0c	0.010394346
135	0xbf087301	-0.5330048
136	0x3feb2adc	1.8372455
137	0xbbfc1153	-0.007692495
138	0x3ef8b968	0.48578954
139	0xbee8a2dd	-0.45436755
140	0xbf6260e5	-0.884291
141	0xbd0c084e	-0.034187607
142	0x3e871cb2	0.2638908
143	0x3f3a5dc3	0.7279932
144	0x3f37225d	0.7153681
145	0x3f70bfff	0.9404296
146	0xbeece9a2	-0.46271998
147	0x3dbeae8a	0.093106344
148	0x3dbd2009	0.09234626
149	0xbe776757	-0.24160515
150	0xbf09cce9	-0.53828293
151	0x3e0180a6	0.12646732
152	0x3f9df27c	1.2339625
153	0xbbd08239	-0.00636318
154	0xbc5c928b	-0.013462673
155	0xbfbc41e5	-1.470761
156	0x3f4c0438	0.7969394
157	0xbedb0394	-0.42776167
158	0xbfb438af	-1.4079798
159	0xbe3d6b26	-0.18497905
160	0xbd8d4b8c	-0.06899175
161	0xc01d40c3	-2.4570777
162	0x3f2757d8	0.65368414
163	0xbde0c566	-0.10975151
164	0x3f90c9e9	1.1311618
165	0xbbf74814	-0.007546434
166	0x3f3aa449	0.7290693
167	0x3f0281e7	0.50979465
168	0xbfddf7a1	-1.7341195
169	0x3efbe988	0.49201608
170	0x3f9cd649	1.2252895
171	0xbf03f4c7	-0.51545376
172	0x3f730b37	0.9493899
173	0x3e552c39	0.20817651
174	0x3f212fb5	0.6296342
175	0x3e6b99f6	0.2300795
176	0xbda94a08	-0.082660735
177	0x3e76b790	0.24093461
178	0x3e376270	0.17908645
179	0xbfa07b8f	-1.2537707
180	0xbf8bae5e	-1.0912588
181	0x3ea75b6a	0.3268693
182	0x3eee0ec4	0.4649564
183	0x3f95ca77	1.1702412
184	0x3e851777	0.25994465
185	0x3f9960c9	1.1982661
186	0x3fb4d5eb	1.4127783
187	0xbe05bf72	-0.13061312
188	0x3f13c586	0.5772327
189	0x3f889310	1.066988
190	0x3dde9a52	0.10869278
191	0x3ed81ed0	0.42211008
192	0xbf08db06	-0.53459203
193	0xbcf4a0c0	-0.029861808
194	0x3fa0e263	1.2569088
195	0x3d30793d	0.04308437
196	0x3f834bec	1.0257545
197	0x3fc47dfa	1.5350945
198	0xbe92c236	-0.28663796
199	0x3ecc49b8	0.39899993
200	0xc051dec1	-3.2792208
201	0x3f240e46	0.6408428
202	0xbf16d64f	-0.5892076
203	0xbeb69e47	-0.3566763
204	0x40151b1f	2.3297803
205	0xbf81d3ac	-1.0142722
206	0x3e4833af	0.19550966
207	0xbf227c0e	-0.6347054
208	0x400f8a9a	2.2428346
209	0xbdbe71b9	-0.092990346
210	0x4025e9bf	2.5923917
211	0xbf8bfb57	-1.0936078
212	0x3f8d4640	1.1037064
213	0xbf24f839	-0.6444126
214	0x3e925d0d	0.28586617
215	0xbfb58686	-1.4181678
216	0x4041ea95	3.0299428
217	0x3f88109b	1.0630068
218	0x3e4b0218	0.19825017
219	0x3f5ef709	0.87095696
220	0x3e057036	0.13031086
221	0x3ec362d3	0.38161334
222	0xbf87d9f4	-1.0613389
223	0xbf8bef6e	-1.0932443
224	0x3fdddf67	1.7333802
225	0x3f3ddf61	0.74168974
226	0x3e2a08c8	0.16604912
227	0x3f8b068f	1.0861377
228	0x39c0d1ad	0.00036777314
229	0x3e258ec3	0.1616774
230	0x3f9c9d05	1.2235419
231	0xbf8228c7	-1.0168694
232	0xbee902dd	-0.45509997
233	0xbf8d95c9	-1.1061336
234	0xbd0af70c	-0.03392701
235	0x3f881042	1.0629961
236	0x40273ceb	2.6130931
237	0xbe0e6b74	-0.13908178
238	0x3ea88b82	0.32918936
239	0x3f5369d7	0.82583374
240	0xbf74ee22	-0.9567586
241	0xbf6fe4ba	-0.93708384
242	0x3fe8927d	1.8169705
243	0x3f69af39	0.91282994
244	0xbf3ca223	-0.736849
245	0x3f45e5d6	0.77303827
246	0x3ffc8ea4	1.973103
247	0x3f8dbe47	1.1073693
248	0x3f6259cb	0.88418263
249	0xbf012f3f	-0.50462717
250	0x3f845eed	1.0341469
251	0xbf665264	-0.8996947
252	0x3fb6fe12	1.4296286
253	0x3f035ee5	0.5131667
254	0x3fd6680d	1.6750504
255	0x3d83fae8	0.06444341

gru.weight_ih_l0 f4 [384, 256]
0	0xbd1be142	-0.03805662
1	0x3b81ccf1	0.0039611985
2	0xbda76a10	-0.08174527
3	0x3d8addb3	0.06780567
4	0x3e19d89d	0.15024038
5	0xbd5caadb	-0.053873878
6	0x3db025b8	0.08600944
7	0xbd64a120	-0.055817723
8	0xbdbe109e	-0.09280513
9	0x3d068cd6	0.032849155
10	0xbdc224ae	-0.09479652
11	0xbe0a6147	-0.13513671
12	0x3cd11f8b	0.025527736
13	0xbc9b0e7f	-0.01892781
14	0xbb2b9204	-0.0026179561
15	0xbc96d9b7	-0.018414361
16	0xbd9311ae	-0.071811065
17	0xbd5be64b	-0.05368642
18	0x3c0ef3ca	0.008725116
19	0x3d3f824f	0.04675513
20	0xbd34c31b	-0.04413138
21	0x3d085e7b	0.03329323
22	0xbcf1e659	-0.029528784
23	0x3d3f051a	0.046635725
24	0x3d9a0b8a	0.07521732
25	0x3dba32ea	0.09091742
26	0x3dbafd1c	0.09130308
27	0xbdfdcf52	-0.12393059
28	0xbcdf141b	-0.027231267
29	0x3d1688aa	0.036751427
30	0xbc92cdff	-0.017920492
31	0xbda57df3	-0.080806635
32	0x3dc54377	0.096320085
33	0x3e077bc0	0.132308
34	0x3e05e02f	0.130738
35	0x3c8b4d08	0.017004505
36	0xbdbce1a2	-0.092227235
37	0xbb555f80	-0.0032558143
38	0x3cfba940	0.030720353
39	0x3dde14dd	0.10843823
40	0xbc819d1c	-0.015821986
41	0x3cb4effa	0.022087086
42	0xbe1e80dc	-0.15478843
43	0x3de9685b	0.11396857
44	0x3d46d4ac	0.048542663
45	0x3e032a11	0.12809016
46	0x3d67a80a	0.05655674
47	0x3e18bbed	0.14915438
48	0x3c8e2b9d	0.01735478
49	0xbd9201e7	-0.07129269
50	0x3de0219e	0.10943912
51	0x3d99c4fb	0.07508274
52	0xbd18c00f	-0.037292536
53	0x3d02dedd	0.03195082
54	0xbd8d99d6	-0.069141075
55	0x3dd8dfa6	0.105895326
56	0xbda7b74a	-0.081892565
57	0xbe3b9bf5	-0.18321212
58	0x3d44be16	0.048032843
59	0xbd281aa1	-0.04104102
60	0x3da5e65f	0.081005804
61	0xbd852683	-0.06501486
62	0xbc76930e	-0.015049709
63	0xbbee084b	-0.007264172
64	0x3e2dacd8	0.16960466
65	0xbe1586d5	-0.14602216
66	0x3db4e678	0.08833021
67	0xbe25472c	-0.16140431
68	0xbdd50bc0	-0.10402632
69	0x3c414473	0.011796105
70	0x3dc80ba6	0.09767847
71	0xbcf13dc6	-0.029448401
72	0xbdaff0c6	-0.08590846
73	0xbd9a39a7	-0.075305276
74	0xbd9266db	-0.071485244
75	0xbd9b4e48	-0.0758329
76	0xbcd18fa2	-0.025581185
77	0xbcd22476	-0.025652152
78	0xbd65c3ab	-0.056094807
79	0xbca5a5be	-0.020220634
80	0xbadade0f	-0.0016698259
81	0xbdc215a3	-0.09476783
82	0xbdda5ed8	-0.10662621
83	0xbdefff64	-0.11718634
84	0xbc179651	-0.009252147
85	0xbd17f690	-0.037100375
86	0xbd2182ff	-0.03943157
87	0x3d7902bf	0.060793635
88	0xbd8509ba	-0.06495996
89	0x3c50c48e	0.012742175
90	0x3d808c6a	0.06276782
91	0xbdf4d914	-0.11955467
92	0xbc732cb7	-0.014842204
93	0xbc95c1ae	-0.01828083
94	0xbdabb85a	-0.08384772
95	0x3d9fee66	0.07809143
96	0xbdbc8a7d	-0.09206102
97	0x3e2c081d	0.1679997
98	0xbd79d90d	-0.06099801
99	0x3dacf7a9	0.08445675
100	0xbe0a4c67	-0.13505708
101	0xbd5fdf93	-0.054656576
102	0xbe336ce1	-0.17522003
103	0x3e020752	0.12698105
104	0x3d497fba	0.049194075
105	0xbdcbc4b1	-0.09949625
106	0xbdff9af7	-0.12480729
107	0x3db013bd	0.08597515
108	0x3d19807a	0.03747604
109	0x3e24ec7e	0.1610584
110	0xbc2fb4bb	-0.010724242
111	0x3d9847d9	0.07435579
112	0x3dcf9570	0.10135925
113	0xbca64373	-0.020295834
114	0x3de74f22	0.1129439
115	0x3d5edc4d	0.054409314
116	0xbc5b9cce	-0.013404084
117	0x3aa1a23c	0.0012331675
118	0x3e3c1c97	0.18370281
119	0x3cfe3a58	0.03103368
120	0x3de09796	0.10966413
121	0xbdb2c840	-0.08729601
122	0x3db7507a	0.089508966
123	0xbb899b9a	-0.0041994574
124	0xbdede973	-0.116167925
125	0xbcceace6	-0.025228929
126	0xbd041673	-0.03224797
127	0xbcb7a008	-0.022415176
128	0xbd6c4ec9	-0.057692323
129	0xbc767c95	-0.015044351
130	0xbdf6583d	-0.12028549
131	0x3b84c58a	0.004051869
132	0xbd018aa4	-0.03162636
133	0x3d51b692	0.051199503
134	0xbaa752fa	-0.0012765818
135	0x3cb73283	0.022362953
136	0x3d4fb609	0.05071071
137	0x3c018435	0.007905056
138	0x3c2f6062	0.010704132
139	0x3e2b1806	0.16708383
140	0x3d76b2fb	0.060229283
141	0x3d6e595e	0.058190696
142	0xbcad1fec	-0.021133386
143	0xbdb12ca7	-0.08651095
144	0xbe00f6e4	-0.12594181
145	0x3d925707	0.071455054
146	0xbd6bafb4	-0.05754061
147	0x3b398b2c	0.0028311713
148	0xbdcae702	-0.099073425
149	0x3dc9c6e7	0.09852391
150	0xbd90343e	-0.070412144
151	0x3cce27fe	0.025165554
152	0xbc08644b	-0.008324693
153	0xbd6e739a	-0.058215715
154	0x3c3a108c	0.011356484
155	0x3d4eaba2	0.05045665
156	0xbb90bcc5	-0.0044170343
157	0x3d5d1179	0.05397174
158	0x3bc0eac9	0.0058873636
159	0xbd9a4741	-0.07533122
160	0x3d7f61ad	0.06234901
161	0xbd2d5929	-0.042321358
162	0x3d9e43a9	0.07727749
163	0x3d929204	0.071567565
164	0xbbdd5136	-0.006754066
165	0xbbd41674	-0.006472403
166	0xbdc74540	-0.09730005
167	0x3e2acf44	0.16680628
168	0x3d2465c5	0.040136117
169	0xbc0c421f	-0.008560686
170	0x3c482748	0.012216397
171	0xbe063299	-0.13105239
172	0x3bec1f5d	0.007205887
173	0xbd2bea64	-0.04197158
174	0xbd0f4f1f	-0.034987565
175	0x3dd8a7ae	0.10578857
176	0xbbcf57d8	-0.0063276105
177	0xbdc2cf75	-0.095122255
178	0x3d9afc17	0.075676136
179	0xbd552148	-0.052033693
180	0xbd035c97	-0.032070722
181	0x3ca75c24	0.020429678
182	0xbd18777a	-0.037223317
183	0xbd8c8b04	-0.068624526
184	0x3e04d78d	0.12972851
185	0xbd399ef0	-0.04531759
186	0x3dc897ba	0.097945645
187	0xbc60a2d0	-0.0137106925
188	0xbc8e3a07	-0.017361654
189	0x3b354839	0.0027661456
190	0xbd7273f3	-0.05919261
191	0x3dae0f70	0.08499038
192	0xbd6f2883	-0.058388244
193	0x3d96966f	0.07352912
194	0x3c8159ba	0.015789855
195	0xbd9ec702	-0.077528015
196	0x3dc00b15	0.09377114
197	0x3dc16f4e	0.09445058
198	0x3d8d4382	0.06897642
199	0x3cd4b95f	0.025967298
200	0xbd4a20e8	-0.049347788
201	0x3e76b199	0.24091186
202	0x3c9a4a8c	0.018834375
203	0xbe02194d	-0.12704964
204	0x3b658ca9	0.0035026467
205	0x3cb6baa6	0.022305798
206	0xbdb16a4f	-0.08662855
207	0xbdc16dd3	-0.094447754
208	0xbdc4f12c	-0.096163124
209	0x3d155311	0.03645617
210	0xbdf0d99c	-0.11760256
211	0xbdf84e5d	-0.121243216
212	0x3d54153f	0.051778074
213	0xbdb5eb6c	-0.08882794
214	0xbde127d2	-0.10993923
215	0xbe076384	-0.13221556
216	0xbd4160c2	-0.047211416
217	0xbdc85aba	-0.0978293
218	0x3cf9d0ce	0.030495074
219	0xbe105666	-0.14095458
220	0xbd431e48	-0.0476363
221	0xbd359bc7	-0.044338014
222	0xbdafd0b9	-0.085847326
223	0x3d274be1	0.04084385
224	0xbdc6b964	-0.09703329
225	0xbe30097c	-0.17191118
226	0xbda0e240	-0.07855654
227	0x3e2f8fa0	0.17144632
228	0xbcfa12de	-0.030526575
229	0x3e23a8c9	0.15982355
230	0x3d3ddaf2	0.04635138
231	0xbcab8dd6	-0.020941656
232	0xbc245848	-0.0100308135
233	0xbb9c3c3a	-0.0047679218
234	0x3d0bd573	0.034139108
235	0xbc5e1d17	-0.01355674
236	0xbd4c246f	-0.049839433
237	0x3cd324b9	0.025774347
238	0x3cf2591f	0.029583512
239	0xbd54096d	-0.0517668
240	0x3d7ff1c8	0.06248644
241	0x3da21252	0.079136506
242	0xbd8c8428	-0.06861144
243	0xbdbd3243	-0.09238102
244	0x3d8662b9	0.065617986
245	0xbdb35c1e	-0.08757804
246	0x3dcdf8f5	0.100572504
247	0x3d98da0c	0.07463464
248	0xbc9cefdd	-0.019157344
249	0xbe2e5143	-0.17023186
250	0xbe2ee4a2	-0.17079404
251	0x3beb7e92	0.007186719
252	0xbdc1c697	-0.09461706
253	0xbde24b8a	-0.11049564
254	0xbd619761	-0.055076007
255	0xbd9d9194	-0.076937824

gru.weight_hh_l0 f4 [384, 128]
0	0xbd2fd671	-0.042929117
1	0x3d19ba24	0.037531033
2	0x3d90945d	0.07059548
3	0xbdc1a401	-0.094551094
4	0xbd418927	-0.04724994
5	0xbd728ab7	-0.05921432
6	0xbba0606a	-0.004894306
7	0x3d3a82d3	0.04553492
8	0x3e125c35	0.14292987
9	0xbcec40db	-0.02883952
10	0x3e37abca	0.17936626
11	0x3dc30fc2	0.0952449
12	0xb948794f	-0.00019118677
13	0x3e277d43	0.16356377
14	0xbc9c6bc0	-0.019094348
15	0x3e307272	0.17231157
16	0x3dab11f3	0.08353033
17	0xbe19183b	-0.1495065
18	0x3e1a2e82	0.15056804
19	0x3cfe8aa2	0.031071965
20	0xbda83920	-0.08214021
21	0xbdc488b8	-0.095963895
22	0x3de406fe	0.11134146
23	0xbd738f58	-0.059462875
24	0x3dcc508c	0.099763006
25	0x3c4ba746	0.012430018
26	0x3db6fc03	0.08934786
27	0x3d3bb8bf	0.045830484
28	0x3d17d171	0.037064973
29	0xbd682901	-0.05667973
30	0xbb97fd03	-0.0046383156
31	0xbd9f7dcc	-0.07787666
32	0xbc99fabf	-0.018796323
33	0xbdf34037	-0.118774824
34	0x3dc78ab2	0.09743251
35	0x3dde135d	0.10843537
36	0x3d87f00a	0.06637581
37	0xbe1f46ef	-0.15554403
38	0x3baf99c8	0.0053589083
39	0x3d4d817a	0.050172307
40	0x3c3b5299	0.011433267
41	0xbe146e72	-0.14495257
42	0xbbcd8f3f	-0.00627318
43	0xbe0498f2	-0.12948969
44	0xbd4d5ad6	-0.050135456
45	0xbd6271e6	-0.055284403
46	0xbd4708c8	-0.04859236
47	0xbc9af9c8	-0.018917933
48	0x3e141ba5	0.1446367
49	0xbdc9e3ff	-0.0985794
50	0x3d156f0e	0.036482863
51	0xbd90f18b	-0.07077321
52	0x3d719885	0.058983345
53	0x3d9b5958	0.075854
54	0xbca7df6d	-0.02049228
55	0xbc87879f	-0.016544161
56	0xbc6ae20b	-0.014336119
57	0xbd4e2075	-0.050323922
58	0x3d6341d1	0.05548269
59	0x3d83c970	0.064349055
60	0x3db818ac	0.08989081
61	0x3e051fd1	0.13000418
62	0xbdde040d	-0.108406164
63	0xbca45c6e	-0.020063605
64	0xbd86c1ae	-0.0657991
65	0xbb76ca4a	-0.0037657195
66	0xbdeb2b7e	-0.11482905
67	0xbd9cadca	-0.07650335
68	0x3dfa4e64	0.12221983
69	0x3db998d2	0.09062351
70	0x3db51047	0.08840995
71	0x3e32c3bd	0.1745748
72	0x3d01a748	0.031653672
73	0xbe17e7f1	-0.14834572
74	0x3c7f3dc4	0.015578691
75	0x3cfa716f	0.030571667
76	0x3d1fe4ec	0.039036676
77	0xbc56f0aa	-0.013118902
78	0xbe223948	-0.15842164
79	0xbdc5e1f7	-0.0966224
80	0xbe122fbb	-0.1427602
81	0xbe17979d	-0.1480393
82	0xbe4852b5	-0.195628
83	0xbe2c246f	-0.16810773
84	0x3e4e9c25	0.20176752
85	0x3d427e49	0.047483716
86	0xbd4bcb92	-0.049754687
87	0x3dae4cd7	0.0851075
88	0x3c3ec55c	0.011643734
89	0xbe38ee42	-0.18059638
90	0xbd76c1b8	-0.06024334
91	0xbdedb7e4	-0.1160734
92	0x3d2ead58	0.042645782
93	0x3d975325	0.073889054
94	0x3daa5ee3	0.083188795
95	0x3cca7665	0.024714658
96	0xbccabae5	-0.024747321
97	0xbd72dea3	-0.059294354
98	0xbdaba623	-0.083812974
99	0x3e4f72d6	0.2025865
100	0x3d177176	0.03697344
101	0x3d73e788	0.059546977
102	0x3dd03d30	0.101679206
103	0x3dbb6655	0.09150378
104	0x3d9c7794	0.07639995
105	0x3c852175	0.016251305
106	0xbd76d370	-0.060260236
107	0x3e123063	0.1427627
108	0xbcad5a17	-0.021161122
109	0x3bc8252b	0.0061079464
110	0x3d9d8910	0.07692158
111	0xbd606238	-0.05478117
112	0xbab33068	-0.0013671042
113	0xbe3a65ad	-0.18202849
114	0x3c852d70	0.016257018
115	0x3df628f9	0.12019534
116	0xbe245062	-0.16046289
117	0xbd625b93	-0.055263113
118	0x3e07be60	0.13256216
119	0xbdc2228f	-0.09479248
120	0x3daf486a	0.08558734
121	0x3d3f7eb6	0.0467517
122	0xbd3e16be	-0.046408407
123	0x3da01ed4	0.0781838
124	0x3c9abbc2	0.018888358
125	0xbd33428b	-0.043764632
126	0xbc58a6f3	-0.013223398
127	0xbd35c989	-0.044381652
128	0xbd56c329	-0.052432213
129	0x3d355f3f	0.044280287
130	0x3ca574e4	0.02019734
131	0xbd26bda0	-0.040708184
132	0xbc0c8f14	-0.008579034
133	0x3d90c410	0.07068646
134	0x3ddd1e00	0.10796738
135	0xbd9c4608	-0.07630545
136	0xbb10f580	-0.0022118986
137	0x3c4236fd	0.011853931
138	0xbde3a0c3	-0.11114647
139	0x3ccfaff5	0.025352458
140	0x3ca6cf25	0.020362446
141	0xbdb6cc43	-0.089256786
142	0xbd440e48	-0.047865182
143	0x3dba93af	0.091102
144	0x3c61907e	0.01376736
145	0x3b9483c0	0.0045323074
146	0xbdc7529b	-0.097325526
147	0x3d1cff81	0.038329605
148	0xbdc73c56	-0.09728305
149	0x3d98c65f	0.07459711
150	0x3dafb7cf	0.085799806
151	0xbc92f0c6	-0.017937075
152	0x3c212d2a	0.009837428
153	0x3d2036b5	0.039114673
154	0x3cca26f3	0.024676776
155	0x3cfd53de	0.03092378
156	0xbdf41dbb	-0.11919733
157	0xbe03866a	-0.12844244
158	0xbd3eff53	-0.046630215
159	0xbd069169	-0.032853518
160	0x3ca2080d	0.01977923
161	0x3d32bbf0	0.043636262
162	0xbce319c8	-0.027722254
163	0xbd6926c6	-0.056921743
164	0xbe13daea	-0.14438978
165	0x3dd9c820	0.10633874
166	0xbd2d3ec4	-0.042296186
167	0x3ce40f25	0.027839253
168	0xbd06e35b	-0.032931667
169	0xbd1d66c3	-0.03842808
170	0xbd317378	-0.04332301
171	0x3e18f755	0.149381
172	0xbc823781	-0.015895607
173	0xbde6a651	-0.11262191
174	0xbd1b3dfe	-0.037900917
175	0x3d1f876e	0.038947515
176	0x3c4ce278	0.012505166
177	0x3aedfc9b	0.0018156947
178	0xbdeeaaef	-0.11653697
179	0x3ca08d9f	0.01959878
180	0x3dbf4764	0.093397886
181	0xbd5d1683	-0.053976547
182	0x3d6db4e2	0.05803383
183	0x3da3bcc7	0.07994991
184	0xbd8ac95a	-0.06776686
185	0xba9b8d48	-0.0011867667
186	0xbd06339e	-0.03276407
187	0xbd0a9be5	-0.03384008
188	0x3da97045	0.08273367
189	0x3e1b33dc	0.15156502
190	0x3dab3e51	0.08361495
191	0x3dd4786e	0.10374533
192	0xbda7d414	-0.081947476
193	0xbc0e735e	-0.008694498
194	0x3d3cd797	0.04610404
195	0x3c8b0171	0.01696846
196	0x3e132496	0.14369425
197	0x3d931e53	0.07183518
198	0x3d524ea3	0.051344525
199	0x3ce80e2c	0.02832707
200	0xbdbe249f	-0.09284329
201	0xbd73f804	-0.059562698
202	0x3cd28f6e	0.025703158
203	0x3ddd8b93	0.10817637
204	0x3d9f1ed6	0.07769553
205	0xbb13ea8e	-0.0022570225
206	0x3d5b7657	0.053579655
207	0xbd1b9643	-0.037985098
208	0xb9891061	-0.0002614288
209	0xbcdb9e49	-0.026808875
210	0x3dddc1a5	0.108279504
211	0x3d22e3ae	0.039767914
212	0x3dfbd56f	0.122965686
213	0x3ce729fa	0.028218258
214	0xbcca3876	-0.024685126
215	0x3d90179a	0.07035752
216	0x3d0b667d	0.034033287
217	0x3e4f646e	0.20253155
218	0xbd969811	-0.07353223
219	0xbe813161	-0.25232986
220	0xbd9025f2	-0.070384875
221	0xbd4e81d1	-0.05041677
222	0x3d1236c5	0.035696764
223	0xbca26390	-0.019822866
224	0x3d6622e4	0.056185618
225	0x3e153b52	0.1457341
226	0x3d81780e	0.06321727
227	0xbd55b677	-0.052175965
228	0xbda185a7	-0.0788682
229	0x3dd89d37	0.10576861
230	0x3dd84973	0.10560884
231	0x3ce7af54	0.028281845
232	0x3d947a94	0.072499424
233	0xbd88d8f2	-0.06682004
234	0xbdd914a4	-0.1059964
235	0x3ce420fb	0.027847758
236	0xbb022dbd	-0.0019863688
237	0x3d0d3bf7	0.034481015
238	0x3ca299e0	0.019848764
239	0x3e1f0f6b	0.15533225
240	0xbd6c673c	-0.05771564
241	0xbe03e02c	-0.12878484
242	0x3dbfd4a8	0.09366733
243	0xbd24e255	-0.04025491
244	0xbe29d2d4	-0.16584331
245	0x3d4afc9e	0.04955732
246	0x3d3f97a7	0.046775486
247	0xbd1bc1fa	-0.038026787
248	0x3d95916a	0.07303126
249	0xbcaba46d	-0.020952428
250	0xbcbdfd16	-0.02319197
251	0x3cc04936	0.02347241
252	0x3ded9153	0.11599984
253	0x3c320c59	0.010867202
254	0xbd36e980	-0.044656277
255	0x3c8638b6	0.016384464

gru.bias_ih_l0 f4 [384]
0	0x3e399099	0.18121566
1	0xbd4242bf	-0.047426935
2	0x3a8e8499	0.0010873257
3	0xbd757414	-0.059925154
4	0x3db452e1	0.088048704
5	0x3d412fce	0.04716473
6	0x3c50fbb2	0.012755321
7	0x3cade7e1	0.021228733
8	0xbd48dd75	-0.049039323
9	0x3c31e1a4	0.01085702
10	0x3bde7ef3	0.006790036
11	0x3dcf590a	0.10124405
12	0xbde3d48e	-0.11124526
13	0xbcf15d7b	-0.02946352
14	0x3c15094f	0.009096458
15	0x3c2ae883	0.010431412
16	0xbd319381	-0.04335356
17	0xbcd8a5b0	-0.026446193
18	0x3dda7e1f	0.10668587
19	0x3d27714e	0.04087954
20	0x3d01aad1	0.031657044
21	0x3d19dc46	0.037563585
22	0xbe27f701	-0.16402818
23	0x3ca5780b	0.020198843
24	0x3ca91380	0.020639181
25	0xbdb4089e	-0.08790706
26	0x3c104113	0.008804577
27	0x3d806c40	0.06270647
28	0x3d04ac86	0.032391094
29	0x3dea57e9	0.11442549
30	0xbd0800b8	-0.03320381
31	0x3d8fceb1	0.07021845
32	0x3e18a1c8	0.14905465
33	0x3daa1c1f	0.08306145
34	0x3bf27e93	0.0074003427
35	0x3df9baa2	0.121938005
36	0x3d4c1870	0.049827993
37	0x3e0f053a	0.13966838
38	0x3ce1ac14	0.027547874
39	0xbd2458ca	-0.04012374
40	0x3c118221	0.008881123
41	0x3bb934b5	0.005652035
42	0xbe12b4bb	-0.14326756
43	0x3d724a02	0.05915261
44	0x3d0885a6	0.033330582
45	0xbc6fe744	-0.01464254
46	0x3e288b46	0.16459379
47	0x3e37b815	0.17941315
48	0xbde3c5b8	-0.11121696
49	0xbc4ce43b	-0.012505586
50	0xbd9b1d4a	-0.07573946
51	0x3e2a9540	0.16658497
52	0x3de36c83	0.11104681
53	0x3e8682d1	0.2627168
54	0x3e004998	0.12528074
55	0xbc965101	-0.018349173
56	0x3e02b23a	0.127633
57	0xbcc0ca8c	-0.023534082
58	0xbd892bb8	-0.06697792
59	0xbb165d82	-0.0022943919
60	0x3daf7ba7	0.08568507
61	0xbb31d202	-0.002713323
62	0x3c925890	0.017864496
63	0x3dcdb910	0.100450635
64	0x3d96df9e	0.0736687
65	0x3d70ab67	0.058757212
66	0x3e247307	0.16059504
67	0x3d5116fe	0.051047318
68	0xbd80962d	-0.06278644
69	0x3b1ccd00	0.00239259
70	0xbc902ff7	-0.017600996
71	0x3e113eb9	0.14184083
72	0xbd39051d	-0.045170892
73	0xbd98e679	-0.07465834
74	0x3d066a4b	0.032816213
75	0xbda73bcf	-0.081657045
76	0x3e1e1634	0.15438157
77	0x3ddd3c53	0.108025216
78	0xbccaa5cc	-0.024737261
79	0x3e4dc4cf	0.20094608
80	0x3e0e5099	0.13897933
81	0x3d3ba6ec	0.045813486
82	0x3cff83b7	0.031190736
83	0x3d8411fd	0.064487435
84	0x3d707081	0.058701042
85	0x3d0c0344	0.0341828
86	0x3dd898b5	0.105760016
87	0x3d7dadde	0.06193339
88	0xbd0b53ee	-0.03401559
89	0xbde6a246	-0.1126142
90	0xbccabcf6	-0.024748307
91	0x3e0c072f	0.13674615
92	0xbd2253b4	-0.039630607
93	0x3cd632f7	0.026147349
94	0xbd5a5094	-0.0532995
95	0xbd978211	-0.07397855
96	0xbcd03bcc	-0.025419138
97	0x3bd439f6	0.006476636
98	0xbca12bae	-0.019674148
99	0x3d48d4ea	0.049031176
100	0x3e1ed236	0.15509877
101	0xbe2353a4	-0.15949875
102	0x3d57ae03	0.052656185
103	0x3da5b716	0.080915615
104	0x3de42ad0	0.11140978
105	0xbe0419a2	-0.12900403
106	0x3c69014b	0.0142215
107	0xbcfefca2	-0.031126324
108	0x3d089cae	0.033352546
109	0x3e3e5474	0.18586904
110	0xbe77b75e	-0.24191043
111	0xbc65222e	-0.0139852
112	0xbcfe3351	-0.031030329
113	0xbd913cdf	-0.07091688
114	0x3dc12e29	0.094326325
115	0xbda356c0	-0.079755306
116	0xbc49a8cd	-0.012308312
117	0x3d71c37c	0.05902432
118	0x3c51d89d	0.012807992
119	0xbd265751	-0.040610615
120	0x3dd60af5	0.10451309
121	0x3dcedf7e	0.101012215
122	0x3c0d9d27	0.008643425
123	0x3e79ae4c	0.24382895
124	0xbde9d770	-0.114180446
125	0xbe5e1a0f	-0.21689628
126	0xbda8b6a4	-0.08237961
127	0x3e15b496	0.1461967
128	0xbd1ea966	-0.03873577
129	0xbd02ea2a	-0.031961598
130	0xbe013be5	-0.12620504
131	0xbd79bb0f	-0.06096941
132	0xbe164896	-0.14676127
133	0xbe198c31	-0.14994885
134	0xbe5f16ac	-0.21785992
135	0xbdfaa83d	-0.1223912
136	0x3d87f576	0.06638615
137	0xbe6cb1d0	-0.23114705
138	0xbe31113e	-0.17291734
139	0xbe376109	-0.1790811
140	0xbd9cfc01	-0.076652534
141	0xbd49f701	-0.049307827
142	0xbe6308e2	-0.22171357
143	0xbda63616	-0.08115785
144	0xbe158628	-0.14601958
145	0xbc5adc7d	-0.013358233
146	0xbe2ba869	-0.16763462
147	0xbe501581	-0.20320703
148	0xbe20d7fa	-0.15707389
149	0xbd8706fa	-0.065931275
150	0xbe8e24d4	-0.27762473
151	0xbd02d299	-0.031939123
152	0xbe368caf	-0.17827104
153	0xbe216479	-0.15760984
154	0xbe024b22	-0.12723973
155	0xbe2e7a9c	-0.1703896
156	0xbdcb5bfd	-0.09929655
157	0x3da2ed6c	0.07955441
158	0xbe02c2e0	-0.12769651
159	0xbeac3b19	-0.33638838
160	0xbe6aa37e	-0.2291393
161	0x3e03654c	0.1283161
162	0xbd1b9a8a	-0.037989177
163	0xbe96e69c	-0.29472816
164	0xbe412249	-0.18860735
165	0xbe0a8f73	-0.13531284
166	0xbd579551	-0.052632634
167	0xbe4a77fc	-0.19772333
168	0x3d7b2d1e	0.061322324
169	0xbe8d4a68	-0.2759583
170	0xbda613fc	-0.081092805
171	0x3e1737cc	0.14767379
172	0xbe175829	-0.14779724
173	0x3c7a94bc	0.01529425
174	0xbe4ffdce	-0.20311663
175	0xbd3f19a9	-0.04665533
176	0xbd83154c	-0.064005464
177	0xbdc56298	-0.09637946
178	0xbd858415	-0.06519333
179	0xbdefe5f3	-0.11713781
180	0xbd986995	-0.07442013
181	0xbd4b0b87	-0.04957154
182	0xbdca6178	-0.09881872
183	0xbe600cad	-0.21879835
184	0xbe0228a5	-0.12710817
185	0xbe2fcb77	-0.1716746
186	0xbe56d5bc	-0.2097997
187	0xbe0ca26e	-0.13733837
188	0xbe29f89d	-0.16598745
189	0xbe62bdc9	-0.2214271
190	0xbb91b125	-0.004446166
191	0xbe377ff7	-0.17919908
192	0xbe4169f6	-0.18888077
193	0xbdf9b1fa	-0.121921495
194	0xbd6220de	-0.055207126
195	0xbe786cec	-0.242603
196	0xbe584bd9	-0.21122684
197	0xbdb342d4	-0.08752981
198	0xbd87519c	-0.06607363
199	0xbd32c123	-0.04364122
200	0xbe2c6aef	-0.16837667
201	0xbd885f33	-0.06658783
202	0xbdd1df3d	-0.102476574
203	0xbdf66d16	-0.12032525
204	0xbcda914d	-0.026680613
205	0xbde2b94d	-0.110704996
206	0xbcb720e5	-0.022354553
207	0xbe23b059	-0.1598524
208	0xbe6dad4b	-0.23210637
209	0xbe4abcda	-0.19798604
210	0xbe154ba8	-0.14579642
211	0x3bae3c71	0.005317264
212	0x3de98b43	0.11403515
213	0x3dac2382	0.0840521
214	0xbe1cbbdd	-0.15306039
215	0xbe22a965	-0.15884931
216	0xbdac1612	-0.08402647
217	0xbcfb531a	-0.030679274
218	0xbc5ed7cb	-0.013601254
219	0xbe42b95a	-0.19016019
220	0xbda7e809	-0.08198554
221	0xbd47b783	-0.048758995
222	0xbdd0d2ba	-0.10196443
223	0xbd9f477c	-0.077773064
224	0x3c253f31	0.010085867
225	0xbe2a09ef	-0.16605352
226	0xbdbc687b	-0.091996156
227	0xbe849915	-0.25898042
228	0xbd786628	-0.0606443
229	0xbdbe20f5	-0.0928363
230	0x3c321927	0.010870255
231	0x3b9b3f7c	0.0047377925
232	0xbcd7083f	-0.02624905
233	0xbe8b42ab	-0.271993
234	0xbdb6fef4	-0.08935347
235	0xbe0ea92b	-0.1393172
236	0xbe38c547	-0.18044005
237	0xbd9ef3ad	-0.07761321
238	0xbe6f88d0	-0.23392034
239	0xbe169063	-0.14703517
240	0xbd9ea621	-0.0774653
241	0x3d79b4cd	0.06096344
242	0xbe5fbd6c	-0.21849602
243	0xbe732b72	-0.23747042
244	0xbe99f5ed	-0.3007044
245	0xbe5ab317	-0.2135738
246	0x3d802e74	0.0625886
247	0xbe2990ad	-0.16559096
248	0xbe11fe3a	-0.14257136
249	0x3dbc4c49	0.09194238
250	0xbe002a6a	-0.1251618
251	0x3cb6b17b	0.022301426
252	0xbea433f5	-0.3207089
253	0xbe033059	-0.12811412
254	0xbd10ae9f	-0.03532278
255	0xbe599d85	-0.21251495

gru.bias_hh_l0 f4 [384]
0	0x3d7fb851	0.062431637
1	0xbdd6b9e2	-0.10484673
2	0xbc1d651a	-0.009606624
3	0xbcdeee12	-0.02721313
4	0x3d5b0832	0.053474613
5	0x3e1ed9fb	0.1551284
6	0x3d972459	0.0737998
7	0xbc9077f2	-0.01763532
8	0xbe062abf	-0.13102244
9	0xbd0b50a4	-0.03401245
10	0x3d4d597b	0.050134163
11	0x3e29a142	0.16565421
12	0xbdc2f721	-0.09519792
13	0xbbf194f3	-0.0073724925
14	0xbc8c9962	-0.017162982
15	0x3e120d50	0.14262891
16	0xbc9ad245	-0.018899092
17	0xbd480b77	-0.04883906
18	0x3dc48cd5	0.09597174
19	0x3e4fffdd	0.20312448
20	0x3df3c90b	0.1190358
21	0xbb5906cd	-0.0033115626
22	0xbd120064	-0.035644904
23	0x3ad7f688	0.001647667
24	0xbc4da8c1	-0.012552441
25	0xbda3088f	-0.07960617
26	0xbc3bb83a	-0.011457497
27	0x3c1ef7bf	0.009702622
28	0x3da7e364	0.08197668
29	0x3dd4268d	0.103589155
30	0xbd7fbbfb	-0.06243513
31	0x3e150814	0.14553863
32	0x3dc8dcf4	0.098077685
33	0x3dddd48a	0.10831554
34	0x3c7310df	0.014835565
35	0x3dc6ce94	0.097073704
36	0x3d96e6b8	0.07368225
37	0xbc3bdc0d	-0.011466038
38	0x3d895d21	0.06707216
39	0xbca1736f	-0.019708363
40	0x3b5b7336	0.003348542
41	0xbe04c952	-0.12967423
42	0xbe4ccdb7	-0.20000349
43	0xbd904860	-0.070450544
44	0xbd210037	-0.039306846
45	0xbd070069	-0.032959376
46	0x3dbba7ff	0.09162902
47	0x3e5eb138	0.21747291
48	0xbe1ddef5	-0.15417083
49	0x3dec0905	0.11525158
50	0xbd1360fd	-0.035981167
51	0x3e2d5d2d	0.16930075
52	0x3d9d10e6	0.07669239
53	0x3e23f7f5	0.16012557
54	0x3dabe68f	0.08393585
55	0x3cbb61f7	0.022873862
56	0x3d6b9694	0.05751665
57	0x3d77d996	0.06051024
58	0xbd779990	-0.060449183
59	0xbc9fdba8	-0.01951392
60	0xbc21779c	-0.009855177
61	0x3cc43155	0.023949305
62	0x3c7c8922	0.015413554
63	0xbd51ccd9	-0.05122075
64	0xbd997ccc	-0.07494506
65	0x3d5c7ab2	0.05382795
66	0x3e21539c	0.1575455
67	0x3c2e2a26	0.010630166
68	0xbdc9a2d8	-0.09845513
69	0x3d098f3e	0.033583872
70	0xbca76ab1	-0.020436617
71	0x3e236e60	0.15960073
72	0xbd3d21d5	-0.046174843
73	0x3c40193e	0.011724768
74	0xbda5c321	-0.080938585
75	0xbe182c7a	-0.14860716
76	0x3e10cbe4	0.14140278
77	0x3e1d7e89	0.153803
78	0xbde8deea	-0.113706425
79	0x3d890516	0.06690423
80	0x3e1c3c52	0.15257385
81	0x3e1fdf6c	0.15612572
82	0x3e15c519	0.14625968
83	0x3e079634	0.13240892
84	0xbd898d15	-0.067163624
85	0xbc91bc9b	-0.01779013
86	0x3d74b033	0.05973835
87	0xbdd7bdff	-0.10534286
88	0x3a8fb8c1	0.0010965095
89	0x3b872e69	0.0041254056
90	0xbe294cb4	-0.16533166
91	0x3e3bde15	0.18346436
92	0xbcd27b8c	-0.025693677
93	0x3dae8059	0.08520574
94	0x3d8dc6e6	0.069227025
95	0x3ce572f4	0.028008915
96	0x3dc9065a	0.098156646
97	0x3c510bdf	0.012759178
98	0xbc4868f8	-0.012232058
99	0x3c5a27f3	0.013315189
100	0x3e0e84a2	0.13917783
101	0xbe570fae	-0.21002075
102	0x3df8d674	0.12150279
103	0x3d16f147	0.036851194
104	0x3be2ab5d	0.0069174008
105	0xbc9b3e05	-0.018950472
106	0x3d86525f	0.0655868
107	0x3c1ede1c	0.00969651
108	0xbcb4f186	-0.022087824
109	0x3dea740c	0.114479154
110	0xbe128231	-0.14307477
111	0x3d10d0ea	0.035355486
112	0x3dadf8c6	0.084947154
113	0x3c8ef81b	0.01745229
114	0x3db242f2	0.08704175
115	0xbd76076f	-0.060065683
116	0xbcd71d7b	-0.026259175
117	0x3c2eaa73	0.010660755
118	0x3d3fedd8	0.046857685
119	0x3dbc5d3e	0.09197472
120	0x3d74f15a	0.059800483
121	0x3c2d0abc	0.010561641
122	0xbb93846f	-0.0045018713
123	0x3e1d38ec	0.15353745
124	0xbc840208	-0.01611425
125	0xbd32e466	-0.04367485
126	0xbdbae4ae	-0.091256484
127	0x3dae365b	0.08506461
128	0xbdc45c25	-0.09587888
129	0xbe0589ad	-0.130408
130	0xbe1d919e	-0.1538758
131	0xbe3de0f0	-0.18542838
132	0xbe575296	-0.21027598
133	0xbd5ceafe	-0.053935044
134	0xbe2c280c	-0.16812152
135	0xbdc41a9e	-0.09575389
136	0xbceedac5	-0.029157052
137	0xbe0c30d3	-0.136905
138	0xbe7dc4be	-0.24782082
139	0xbe5a57cd	-0.21322556
140	0xbe2e325a	-0.17011395
141	0xbdf5219f	-0.11969303
142	0xbe0e1f4c	-0.13879126
143	0xbe35ac83	-0.17741589
144	0xbdda1bdd	-0.10649846
145	0xbd96e5fe	-0.07368086
146	0xbe3d2ece	-0.18474886
147	0xbe00a6cf	-0.12563632
148	0xbe8eec9a	-0.27914888
149	0xbbf62da6	-0.007512766
150	0xbe2a50a6	-0.16632327
151	0xbd638293	-0.055544447
152	0xbe02e3ab	-0.12782161
153	0xbe50b190	-0.20380235
154	0xbe681496	-0.22664103
155	0xbe7da938	-0.24771583
156	0xbe033aa0	-0.12815332
157	0xbc7d5458	-0.015462004
158	0xbd96d2d8	-0.07364434
159	0xbe634cb4	-0.22197229
160	0xbe4b47e2	-0.1985164
161	0xbc67eced	-0.014155609
162	0xbd058d59	-0.032605503
163	0xbe5e5d0f	-0.21715187
164	0xbe3c20dd	-0.18371911
165	0xbde9a60c	-0.11408624
166	0xbe339dd0	-0.1754067
167	0xbd90f77e	-0.070784554
168	0x3d336cd2	0.04380495
169	0xbe405a35	-0.18784411
170	0xbd960ec7	-0.07327037
171	0x3e3ebf78	0.18627727
172	0xbe49095f	-0.19632481
173	0xbd0de310	-0.03464037
174	0xbe2f35ba	-0.17110339
175	0xbd2db76e	-0.04241126
176	0x3d181ea4	0.037138596
177	0xbdd93728	-0.10606223
178	0xbd4defb9	-0.050277445
179	0xbe1c7eba	-0.15282717
180	0xbe2eb622	-0.17061666
181	0xbe01760a	-0.12642685
182	0xbdcd22b5	-0.100163855
183	0xbe25e92c	-0.1620223
184	0xbd8348ed	-0.06410394
185	0xbe7d3a26	-0.24729213
186	0xbde05796	-0.10954206
187	0xbca54466	-0.020174216
188	0xbdae93c1	-0.085242756
189	0xbde6e9b3	-0.11275043
190	0xbd600393	-0.05469091
191	0xbe3b8b1e	-0.18314788
192	0xbe878459	-0.2646816
193	0xbe3755b0	-0.17903781
194	0xbc139e93	-0.009009975
195	0xbe754b7b	-0.23954575
196	0xbd7fd4e4	-0.062458888
197	0xbe349a7a	-0.17637053
198	0xbe404171	-0.18774964
199	0xbcceaaf7	-0.025228007
200	0xbe371835	-0.17880328
201	0xbe2f7875	-0.17135794
202	0xbd3cd272	-0.046099134
203	0xbdd2aa98	-0.102864444
204	0xbd179909	-0.03701118
205	0xbd8f7f2c	-0.07006678
206	0xbcc242c6	-0.02371348
207	0xbe439ccc	-0.19102782
208	0xbe10cad5	-0.14139874
209	0xbd99c6e2	-0.07508637
210	0xbd945421	-0.07242609
211	0xbdcde990	-0.10054314
212	0x3e0956b2	0.13411978
213	0x3ce71752	0.028209362
214	0xbdc33925	-0.09532384
215	0xbe54757e	-0.20747945
216	0xbe213336	-0.15742192
217	0xbdf1f0e1	-0.11813522
218	0x3cb872fa	0.022515763
219	0xbe292cc8	-0.16520989
220	0xbddac7d0	-0.106826425
221	0xbd7c6f90	-0.06162983
222	0xbe0775eb	-0.13228576
223	0xbd2df3ad	-0.042468715
224	0xbdeea877	-0.11653226
225	0xbe46f106	-0.1942788
226	0xbd5aed19	-0.05344877
227	0xbe5e68a7	-0.21719609
228	0xbe01c481	-0.12672617
229	0xbe5a6980	-0.21329308
230	0xbcab6b8f	-0.020925311
231	0xbdded03e	-0.10879563
232	0x3cf91c1f	0.030408917
233	0xbe9218e3	-0.28534612
234	0x3c06337a	0.008190984
235	0xbe2ec701	-0.17068101
236	0xbe4a8f5d	-0.19781251
237	0xbd192c43	-0.037395727
238	0xbe3ca97d	-0.1842403
239	0xbe1c34cd	-0.15254517
240	0xbe2a5f5e	-0.16637942
241	0xbd36f2e2	-0.044665225
242	0xbe58b56f	-0.21162961
243	0xbe520817	-0.20510899
244	0xbe48346e	-0.1955125
245	0xbe7438fa	-0.2384986
246	0x3c9e1666	0.01929779
247	0xbe082a42	-0.1329737
248	0xbcc4b8bf	-0.024013875
249	0x3d4dc99c	0.050241098
250	0xbd9da800	-0.07698059
251	0xbdde84e5	-0.10865191
252	0xbea3a8bb	-0.3196467
253	0xbdb336a8	-0.08750659
254	0xbe28f098	-0.16498029
255	0xbe874dfe	-0.2642669
